03-CNN-Convolutional-Neural-Networks/scratch/myCIFARmodel.pt (torch_old, 328143 bytes, 10 tensors)

convolutional_layer_1.weight f4 [6, 3, 5, 5]
0	0x3cebee99	0.028800296
1	0xbede46b9	-0.43413332
2	0xbf1b398f	-0.606347
3	0xbd6fb94d	-0.058526326
4	0xbce96bbd	-0.028493756
5	0xbe1fc47a	-0.15602294
6	0xbcf778e1	-0.030209007
7	0xbdf8e3c6	-0.12152819
8	0xbd828ccb	-0.063745104
9	0x3b341131	0.0027476067
10	0x3d66de27	0.056364205
11	0x3e68fc41	0.22752477
12	0x3eda3feb	0.4262689
13	0x3e334149	0.17505373
14	0x3cb0ac4b	0.02156653
15	0xbc7acf98	-0.015308283
16	0x3ea3e516	0.32010716
17	0x3e7e6fdb	0.24847357
18	0x3dc1581e	0.09440635
19	0xbdb75ea5	-0.08953599
20	0x3e21f96b	0.15817802
21	0x3db788fa	0.08961673
22	0xbd0980c3	-0.033570062
23	0xbd89686d	-0.06709371
24	0x3ca284bf	0.019838689
25	0x3e027b04	0.12742239
26	0xbee8ffac	-0.45507562
27	0xbf04e42c	-0.5191066
28	0xbdc58965	-0.096453466
29	0x3e4f75a5	0.20259722
30	0xbdc6e08d	-0.097107984
31	0xbd76c4dc	-0.060246333
32	0xbdd8b36d	-0.10581098
33	0xbd3fcbc1	-0.046825174
34	0xbc6ca2eb	-0.01444314
35	0xbd97b778	-0.07408041
36	0x3e9d70ec	0.30750215
37	0x3ecc8b69	0.39950112
38	0x3e2e868e	0.17043516
39	0xbdbec39f	-0.093146555
40	0xbd27c1c1	-0.040956262
41	0x3e918547	0.28421995
42	0x3e812d95	0.2523009
43	0x3dda44a7	0.10657626
44	0xbd94948e	-0.07254897
45	0x3da6574b	0.081221186
46	0x3c47015c	0.01214632
47	0x3d10ce45	0.035352964
48	0x3d0c09fc	0.03418921
49	0x3cede83f	0.029041408
50	0x3e2634a5	0.1623102
51	0xbedfe0b2	-0.43726116
52	0xbf00d539	-0.5032535
53	0xbb7771ab	-0.003775696
54	0x3e205acf	0.1565964
55	0xbe698400	-0.2280426
56	0xbe90e39c	-0.28298652
57	0xbd81d1d1	-0.063388474
58	0x3798db24	1.8221857e-05
59	0xbd3bed5c	-0.04588066
60	0xbccc673d	-0.024951572
61	0x3e76400b	0.24047868
62	0x3ec9c0a4	0.39404786
63	0xbbc36f93	-0.0059642284
64	0xbdb400e2	-0.08789231
65	0xbdb253e6	-0.087074086
66	0x3e1a90c6	0.15094289
67	0x3d819d49	0.06328828
68	0x3dde09f1	0.1084174
69	0xbd6e59d0	-0.05819112
70	0x3cd6b5f9	0.026209818
71	0xbc8b0420	-0.01696974
72	0xbd214be5	-0.03937902
73	0x3bea08af	0.0071421484
74	0x3d81c7ab	0.06336912
75	0x3e4f4cd2	0.20244148
76	0x3e7c4e9b	0.2463936
77	0x3e83374f	0.25628135
78	0x3e379931	0.17929532
79	0x3e97cade	0.29646963
80	0x3e789ce6	0.24278602
81	0x3e642228	0.22278655
82	0x3e95f4de	0.2928838
83	0x3ebb3724	0.36565506
84	0x3e83cc4f	0.25741813
85	0x3e042107	0.12903224
86	0x3eb266eb	0.34844145
87	0x3e899944	0.26874745
88	0x3e9d431e	0.3071527
89	0x3e611ddc	0.21984047
90	0x3d19762b	0.03746621
91	0xbd83fbe2	-0.06444527
92	0x3c2ac9fe	0.010424135
93	0x3dd8870c	0.10572633
94	0xbd9150a4	-0.07095459
95	0xbe134e06	-0.14385232
96	0xbded2a5b	-0.11580344
97	0xbdb8ec62	-0.090294614
98	0xbd2387b8	-0.039924353
99	0xbe364136	-0.17798313
100	0xbe846667	-0.25859377
101	0xbe3b07dc	-0.18264717
102	0xbe6c4d33	-0.23076324
103	0xbd8ee558	-0.069773376
104	0xbe251ca7	-0.16124211
105	0xbe6959b8	-0.22788131
106	0xbe97d6ce	-0.2965607
107	0xbeb10548	-0.34574342
108	0xbea670d7	-0.32507965
109	0xbdd25fdc	-0.1027219
110	0xbe0d2a04	-0.13785559
111	0xbe860c1e	-0.2618112
112	0xbea5d2cd	-0.3238739
113	0xbe2f4125	-0.17114694
114	0xbdf088f4	-0.11744872
115	0xbdba5d52	-0.09099831
116	0xbe4ea160	-0.20178747
117	0xbe528be0	-0.2056117
118	0xbcbf5506	-0.023355972
119	0x3d196ac7	0.037455346
120	0xbdda2b6d	-0.10652814
121	0xbe4eadf8	-0.20183551
122	0xbd660eb7	-0.056166377
123	0xbd70db7c	-0.058803067
124	0x3cd12366	0.025529575
125	0xbd75b151	-0.059983555
126	0xba7911d2	-0.00095012516
127	0x3da2515d	0.07925675
128	0x3d3c9d8c	0.046048686
129	0x3e170a54	0.14750034
130	0xbe8671d8	-0.2625873
131	0xbe513dfc	-0.20433801
132	0xbeb86657	-0.3601558
133	0xbe16a8f2	-0.14712885
134	0xbe0a5325	-0.1350828
135	0xbe520326	-0.20509014
136	0xbec4e421	-0.384553
137	0xbe22cbe4	-0.1589809
138	0xbe51cd57	-0.20488487
139	0x3df1f91b	0.11815091
140	0x3dbb50fd	0.09146307
141	0xbd51f58c	-0.051259562
142	0x3e098fd7	0.13433777
143	0x3d8535ff	0.065044396
144	0x3eb0677e	0.34453958
145	0x3d643c18	0.055721372
146	0x3e4366d1	0.1908219
147	0x3e854587	0.26029608
148	0x3e149338	0.14509284
149	0x3ebe57de	0.37176412
150	0x3e2c8671	0.1684816
151	0x3e93d190	0.2887082
152	0x3ef35537	0.4752595
153	0x3ecf534b	0.40493235
154	0x3e436c57	0.19084297
155	0x3e86afde	0.2630605
156	0x3e6bdfeb	0.23034637
157	0x3d88b28d	0.06674681
158	0xbd2cd15a	-0.04219184
159	0x3e341ef9	0.1758994
160	0x3e153332	0.1457031
161	0xbe0d2e84	-0.13787276
162	0xbdf2aed9	-0.11849756
163	0xbe3434d0	-0.17598271
164	0x3c300260	0.010742754
165	0xbe4267dd	-0.18984933
166	0xbea32014	-0.3186041
167	0xbec98ef8	-0.3936689
168	0xbe547e69	-0.20751347
169	0xbe94c5eb	-0.2905725
170	0xbe3aafc3	-0.1823111
171	0xbd9517c9	-0.07279927
172	0xbd5ee331	-0.054415885
173	0xbdbeef9d	-0.09323046
174	0xbe3609cf	-0.17777179
175	0x3c658771	0.0140093425
176	0x3e0b249f	0.13588189
177	0x3e6db026	0.23211727
178	0x3e49fb51	0.19724776
179	0x3c31a03c	0.0108414255
180	0x3da9735e	0.08273958
181	0xbc997115	-0.01873068
182	0xbc64752d	-0.0139439525
183	0xbdd76a86	-0.105183646
184	0xbd0ff94c	-0.035149857
185	0xbddcfe57	-0.10790699
186	0xbdce5333	-0.10074463
187	0xbec0bdd6	-0.37644833
188	0xbea4cb43	-0.32186326
189	0xbde04f8b	-0.109526716
190	0xbd9dc74c	-0.077040285
191	0xbe23d521	-0.15999271
192	0xbe72ea05	-0.23722084
193	0xbe191e6f	-0.14953016
194	0xbe5b06c4	-0.213893
195	0x3c06ecf6	0.008235207
196	0x3e3a6604	0.18202978
197	0x3c94b35f	0.018151937
198	0x3e4345dd	0.1906962
199	0xbd3d7505	-0.046254177
200	0x3df1c03a	0.118042424
201	0x3dc0774d	0.09397755
202	0x3ea73974	0.3266102
203	0x3e0e33e1	0.13886978
204	0x3e00f99e	0.12595221
205	0xb92e98d4	-0.00016650866
206	0x3c5424c7	0.0129482215
207	0x3e03477b	0.12820236
208	0xbe1cbc81	-0.15306284
209	0xbc619bb8	-0.013770036
210	0x3d99abb0	0.0750345
211	0xbd1737f1	-0.036918584
212	0xbe5f1120	-0.21783876
213	0xbe476a27	-0.19474088
214	0xbe49fec6	-0.19726095
215	0xbcf94119	-0.030426549
216	0xbdfbaa28	-0.12288314
217	0xbe389d45	-0.18028744
218	0xbd0499df	-0.032373305
219	0xbe26b217	-0.16278873
220	0x3dc8ddc0	0.098079205
221	0x3e10f4e2	0.14155915
222	0x3e771788	0.2413007
223	0x3e6a2523	0.22865729
224	0x3d9f5d60	0.07781482
225	0xbdaba1fd	-0.08380506
226	0xbe01e420	-0.12684679
227	0xbe026444	-0.12733561
228	0xbe305ca0	-0.17222834
229	0xbc343379	-0.0109986
230	0xbe0258d8	-0.12729204
231	0xbde638b4	-0.11241284
232	0xbe6ecc76	-0.23320183
233	0xbe17dd40	-0.14830494
234	0xbdc873b4	-0.097876936
235	0xbdd27b3b	-0.102774106
236	0xbe1f26cf	-0.15542148
237	0xbe358c26	-0.17729244
238	0xbeae04f6	-0.3398816
239	0xbe54a874	-0.20767385
240	0xbe1ff308	-0.15620053
241	0xbdfd4796	-0.123671696
242	0xbe82211a	-0.2541588
243	0xbe92a268	-0.2863953
244	0xbe01259f	-0.12612008
245	0x3d8299df	0.06377005
246	0xbdc74973	-0.09730806
247	0xbe682e10	-0.22673821
248	0xbdb045c4	-0.08607057
249	0xbe06ad19	-0.13151969
250	0xbd9c0806	-0.07618718
251	0x3dca06b7	0.09864562
252	0x3cf54d29	0.02994402
253	0x3def3e3e	0.11681794
254	0xbdff0812	-0.12452711
255	0x3bc15887	0.005900446

convolutional_layer_1.bias f4 [6]
0	0xbcfdfc57	-0.031004114
1	0x3e271da2	0.16319898
2	0x3e61fbed	0.22068758
3	0xbdf2fbc3	-0.11864426
4	0x3de85518	0.11344355
5	0x3dcaac44	0.09896138

convolutional_layer_2.weight f4 [16, 6, 3, 3]
0	0xbdc94f43	-0.09829571
1	0xbeb77740	-0.35833168
2	0x3e927bf2	0.28610188
3	0xbeaf2f83	-0.34215936
4	0x3da41e89	0.080136366
5	0x3eb1ab17	0.34700844
6	0xbc4140d4	-0.011795241
7	0x3e89069a	0.2676285
8	0xbcb73280	-0.022362947
9	0xbe8b47b3	-0.2720314
10	0xbd9cfbe6	-0.07665233
11	0x3ee47ca0	0.4462633
12	0xbe04541b	-0.12922709
13	0x3e08c6a0	0.1335702
14	0x3e8c6dcf	0.27427527
15	0x3c4eb5b3	0.012616563
16	0xbd981d63	-0.0742748
17	0x3d9fd5af	0.07804429
18	0x3e952874	0.29132426
19	0x3de5e222	0.11224772
20	0xbf32591d	-0.69667226
21	0x3f0ab88d	0.5418785
22	0xbf0f0319	-0.558641
23	0xbf24c096	-0.6435636
24	0xbe646103	-0.22302632
25	0xbe832263	-0.25612172
26	0x3ded3703	0.11582758
27	0xbdf0da20	-0.11760354
28	0xbea4d02b	-0.3219007
29	0x3be5a3cf	0.007008053
30	0xbec3c4b9	-0.38236025
31	0xbd59cf1a	-0.053176023
32	0x3ecc2827	0.39874384
33	0xbea09e40	-0.31370735
34	0x3e0dea1e	0.1385884
35	0x3ef820c5	0.484625
36	0x3e163786	0.14669618
37	0x3d8c608e	0.06854354
38	0x3cb580d2	0.022156153
39	0xbd4edc75	-0.050503213
40	0xbc931145	-0.01795257
41	0xbd616938	-0.055031985
42	0xbde2b9e5	-0.11070613
43	0xbd263e34	-0.040586665
44	0x3d5fe300	0.054659843
45	0xbda46bc6	-0.08028369
46	0xbdfc5a77	-0.12321942
47	0xbee11124	-0.4395839
48	0xbe010eca	-0.12603298
49	0xbf0253e8	-0.5090928
50	0xbefec137	-0.49756786
51	0xbea04b9a	-0.3130768
52	0xbea2143d	-0.31656066
53	0x3e8c8897	0.2744796
54	0xbd0712cb	-0.032976907
55	0xbec7596d	-0.38935414
56	0x3e8e80b7	0.27832577
57	0xbf076edc	-0.52903533
58	0x3d10bd34	0.03533669
59	0x3dd600c3	0.10449364
60	0xbe69863b	-0.22805111
61	0x3ec03feb	0.37548766
62	0xbbfdcda8	-0.0077454634
63	0xbd652353	-0.05594189
64	0x3cf35636	0.029704195
65	0x3dd79a60	0.105274916
66	0xbd86ed72	-0.06588258
67	0x3ca476f2	0.020076249
68	0xbd690d04	-0.05689718
69	0xbe2aacef	-0.16667531
70	0x3d8abf31	0.06774748
71	0x3d803fde	0.06262182
72	0xbdd7cc70	-0.1053704
73	0x3e289913	0.16464643
74	0xbd7395a1	-0.05946887
75	0x3dc70204	0.09717181
76	0xbe0a338d	-0.13496228
77	0xbd95eea3	-0.07320907
78	0x3e5c4706	0.21511468
79	0xbe81cd3f	-0.25351903
80	0x3d2853e4	0.04109563
81	0x3e18299a	0.1485962
82	0xbd78ae85	-0.06071331
83	0xbd4ea431	-0.050449554
84	0x3dde0cce	0.10842286
85	0xbdaf01d6	-0.08545272
86	0xbd0d6360	-0.0345186
87	0xbe1dfbe7	-0.15428124
88	0x3d1d371d	0.03838264
89	0x3d8d05d3	0.068858765
90	0x3e7d2272	0.24720171
91	0x3e7b1102	0.24518207
92	0xbe736ec9	-0.2377273
93	0x3f3ff419	0.7498184
94	0xbedf0abb	-0.43562874
95	0x3e693f72	0.22778109
96	0xbe72bf45	-0.23705776
97	0xbf378f6d	-0.71703225
98	0xbb21701a	-0.0024633468
99	0x3ea37068	0.31921697
100	0xbe5c8e82	-0.21538737
101	0xbdddb6fb	-0.108259164
102	0x3edea5bd	0.43485823
103	0xbf2144a5	-0.6299537
104	0x3e56790c	0.20944613
105	0x3cf45101	0.029823782
106	0xbe86e3b2	-0.26345593
107	0x3d8a745f	0.06760477
108	0xbe065a71	-0.13120438
109	0x3b86aa0f	0.004109628
110	0xbd2554a2	-0.040363915
111	0x3d1f80cf	0.0389412
112	0xbd897e1b	-0.06713506
113	0xbd44de0b	-0.04806332
114	0xbdc41e02	-0.09576036
115	0xbd82e4ee	-0.06391321
116	0xbd5a9308	-0.053362876
117	0xbbfc116b	-0.007692506
118	0x3b42f59a	0.002974844
119	0xbdeb6d12	-0.11495413
120	0xbdb60f38	-0.088896215
121	0xbdc30994	-0.09523311
122	0xbd5f5242	-0.054521807
123	0xbe0089f7	-0.1255263
124	0x3dcfff9e	0.10156177
125	0xbdd6cefa	-0.104886964
126	0x3d13dc43	0.03609873
127	0x3d20829f	0.03918707
128	0xbd5c8bd8	-0.053844303
129	0xbe0a1d77	-0.13487802
130	0xbda74b0e	-0.081686124
131	0xbdeb3120	-0.11483979
132	0xbd2f9674	-0.042868093
133	0xbd121f66	-0.035674475
134	0xbcf88a5d	-0.030339414
135	0xbc9ef79c	-0.019405179
136	0xbd871594	-0.065959126
137	0xbd1eeecc	-0.038801953
138	0xbdf03c5d	-0.117302634
139	0xbd1b3492	-0.03789193
140	0xbd4e8427	-0.050419
141	0x3cb6f0af	0.022331564
142	0xbe0f8a53	-0.1401761
143	0xbe4ae39a	-0.19813386
144	0xb93c8a66	-0.00017980635
145	0xbe268bfa	-0.16264334
146	0xba65b881	-0.000876315
147	0xbdf15080	-0.11782932
148	0xbc5dda40	-0.013540804
149	0xbe07483b	-0.13211147
150	0xbdcc39a7	-0.09971934
151	0x3db288c6	0.08717494
152	0x3d2b9ec8	0.041899472
153	0x3d8261eb	0.063663326
154	0x3da8feba	0.0825171
155	0xbc7e42b8	-0.015518837
156	0xbe160cf2	-0.14653376
157	0xbe37ae16	-0.17937502
158	0xbc118fc8	-0.008884378
159	0xbe4f4728	-0.20241988
160	0x3cef5ed0	0.029220015
161	0xbe3b741f	-0.18306015
162	0xbb9433d4	-0.00452278
163	0xbe00695b	-0.1254019
164	0xbddfa972	-0.10920991
165	0x3dd904ef	0.10596644
166	0xbdf786aa	-0.12086232
167	0xbe3c1aae	-0.18369552
168	0xbe27a634	-0.16371995
169	0x3dd24faa	0.10269101
170	0xbdf72f89	-0.120696135
171	0x3da0dc85	0.07854561
172	0x3e9b917b	0.3038443
173	0x3eba8b8e	0.36434597
174	0x3ccedc18	0.025251433
175	0x3d8b6c27	0.06807738
176	0x3e4e32f8	0.2013663
177	0xbeae6d1f	-0.34067628
178	0xbe5eb58f	-0.21748947
179	0xbedaf18f	-0.4276242
180	0xbdd1f698	-0.10252112
181	0x3e4dd459	0.20100535
182	0x3e5324e6	0.20619544
183	0xbe1ec92f	-0.15506433
184	0x3e7c3e09	0.2463304
185	0x3ec49a91	0.38399175
186	0x3ec485e6	0.38383406
187	0x3e88d7b3	0.26727065
188	0x3d35658a	0.04428629
189	0x3db9eff3	0.0907897
190	0x3e6af661	0.22945549
191	0x3da9da0f	0.082935445
192	0xbdb06aae	-0.086140975
193	0xbe812075	-0.25220075
194	0xbcf470ac	-0.029838882
195	0xbab7f764	-0.001403552
196	0xbdcccdfb	-0.10000225
197	0xbdd52808	-0.10408026
198	0x3dbd9d30	0.09258497
199	0x3e2942ce	0.1652939
200	0x3dee1c91	0.11626542
201	0x3d974904	0.073869735
202	0x3e4278f1	0.18991448
203	0xbcc5d5f4	-0.024149872
204	0xbe24ea44	-0.1610499
205	0xbe7642a0	-0.24048853
206	0xbe2d4b26	-0.16923198
207	0xbe11c150	-0.14233899
208	0x3d75b90d	0.05999093
209	0x3c9cc992	0.019139085
210	0x3e14cda2	0.14531568
211	0x3c7eba0e	0.015547289
212	0xbd118de8	-0.035535723
213	0x3cdd7579	0.027033554
214	0xbe2c0efa	-0.16802588
215	0x3dc03e4d	0.09386883
216	0x3e1a4891	0.15066744
217	0x3dd81f9e	0.105529055
218	0x3d45b6ea	0.048270144
219	0xbde447b7	-0.11146491
220	0x3cd4eff1	0.02599332
221	0xbd51e5eb	-0.051244657
222	0x3e0a24c2	0.13490584
223	0x3ceff227	0.029290272
224	0x3de6b6e6	0.11265354
225	0xbcdc3560	-0.02688092
226	0x3db4e337	0.088324
227	0x3e133dec	0.1437909
228	0xbebd9bee	-0.37033027
229	0xbe04364e	-0.1291134
230	0xbdb025ee	-0.086009845
231	0xbf0e7c83	-0.5565874
232	0xbe90e3c7	-0.2829878
233	0xbd43f7ba	-0.047843672
234	0xbc1ee171	-0.009697304
235	0xbdd2f438	-0.10300487
236	0x3cb527b8	0.022113666
237	0x3e3ddd00	0.18541336
238	0x3e428049	0.1899425
239	0x3e7278b2	0.23678854
240	0xbeba7693	-0.3641859
241	0xbef31643	-0.47477922
242	0xbe582374	-0.21107274
243	0xbd883cdf	-0.06652235
244	0x3c98c3fa	0.018648136
245	0xbdaab605	-0.08335499
246	0x3b29dcdc	0.0025918996
247	0x3e10639a	0.14100495
248	0xbd2f4db8	-0.042798728
249	0xbdc8ab5a	-0.09798308
250	0x3d95c7dc	0.07313511
251	0xbe24b9ab	-0.16086452
252	0x3e8357e7	0.25653002
253	0x3ea5bf5f	0.32372567
254	0x3e0913d0	0.13386464
255	0x3e786ccc	0.24260253

convolutional_layer_2.bias f4 [16]
0	0x3c872568	0.016497329
1	0xbd8c4264	-0.068486005
2	0xbe21a6ff	-0.1578636
3	0xbdbed6a7	-0.093182854
4	0x3dcdda6b	0.100514255
5	0xbd883d6d	-0.06652341
6	0xbd786c41	-0.060650114
7	0x3dd91d3e	0.10601281
8	0x3e8da4d2	0.2766481
9	0x3f0b6d58	0.5446372
10	0xbe0b8e38	-0.13628471
11	0xbe24ed88	-0.16106236
12	0x3eae7939	0.3407686
13	0xbe111363	-0.14167552
14	0xbe6a7aca	-0.22898403
15	0xbe18dbd1	-0.14927603

fully_connected_1.weight f4 [120, 576]
0	0xbd8210f2	-0.06350888
1	0xbd258bf5	-0.040416677
2	0xbc1b888e	-0.009493006
3	0xbd6d68c5	-0.057961244
4	0xbd0a5d53	-0.033780407
5	0xbd5d29ca	-0.05399493
6	0xbcba70eb	-0.022758922
7	0x3bb64fb3	0.0055637
8	0xbc88ede4	-0.016714998
9	0xbd09f79f	-0.033683416
10	0xbd4f2958	-0.050576538
11	0xbd3c92c1	-0.046038393
12	0xbd96687c	-0.073441476
13	0xbce3d733	-0.027812576
14	0xbc871a9d	-0.016492182
15	0xbd3d358d	-0.046193648
16	0xbbdfcd97	-0.006829928
17	0xbd41f337	-0.04735109
18	0xbd7f8d8b	-0.062390845
19	0xbc8b1177	-0.016976101
20	0xbcabbbf1	-0.02096364
21	0xbb3306e8	-0.002731735
22	0xbd8e6dd3	-0.06954541
23	0xbd403939	-0.04692957
24	0xba9dff86	-0.0012054301
25	0xbcb16dff	-0.021658896
26	0xbd80b863	-0.06285169
27	0xbcca8c4f	-0.024725107
28	0xbcfd269b	-0.030902198
29	0xbd1bd4b3	-0.038044643
30	0x3cd76cee	0.026297059
31	0x3c78f2af	0.015194579
32	0xbb45ce1f	-0.0030182672
33	0xbbbc2171	-0.005741291
34	0xbcce50b4	-0.025184967
35	0xbc6aa1ea	-0.01432083
36	0xbce183a6	-0.027528595
37	0xbc34633a	-0.011009986
38	0x3c5e56cf	0.0135705015
39	0x3ac3aa93	0.0014928154
40	0xbd44dffe	-0.048065178
41	0x3c2a6b18	0.01040151
42	0xbafe788c	-0.0019414588
43	0xbc92a71e	-0.017901953
44	0xbc66941a	-0.014073396
45	0xbc66315b	-0.014049853
46	0xbd269f2a	-0.040679134
47	0xbd1c61e5	-0.038179297
48	0xbd82b647	-0.06382423
49	0xbb85dfc4	-0.004085513
50	0xbc841944	-0.016125329
51	0x3b12c8b7	0.0022397467
52	0xbd4a6b75	-0.049418885
53	0xbd8a2aca	-0.067464426
54	0xbd0a6b25	-0.033793587
55	0x3c0f9436	0.008763364
56	0xbbba02ab	-0.0056765876
57	0xbbfab3df	-0.007650837
58	0x3c2d40a3	0.010574493
59	0xbc3c3191	-0.011486427
60	0xbd47dba7	-0.04879346
61	0xbd1cc1a7	-0.03827062
62	0xbc732d13	-0.0148422895
63	0x3cc659ce	0.024212744
64	0x3bdac2e9	0.006676067
65	0xbd3e8557	-0.04651388
66	0x3ca5d3df	0.02024263
67	0xbb99be84	-0.0046919007
68	0xbd1bad79	-0.038007233
69	0x3b9dcbd9	0.0048155603
70	0xbb6f8bff	-0.003655195
71	0xbd34aa2e	-0.04410761
72	0x3d02851d	0.031865228
73	0xbb7b7eb0	-0.0038375072
74	0x3cdd9bf2	0.0270519
75	0xbc02b44c	-0.007977556
76	0xbcfaa5a3	-0.03059656
77	0x3cce4c62	0.025182907
78	0xbd1bcf9a	-0.03803978
79	0x3b1d5230	0.0024005286
80	0xbb65b050	-0.0035047717
81	0xbd26bd4c	-0.04070787
82	0x3ce38636	0.027773958
83	0x3c9abce2	0.018888894
84	0x3ca35676	0.019938689
85	0x3be66338	0.0070308708
86	0xbc21c2fc	-0.009873148
87	0xbc890413	-0.016725576
88	0xbc553bd6	-0.013014754
89	0x3a4f9f40	0.00079201534
90	0x3c2adb60	0.01042828
91	0x3c771ac0	0.015082061
92	0x3d19ad87	0.037519004
93	0x3cc35f7e	0.023849245
94	0x3c1f238c	0.009713065
95	0xbcc9f5d0	-0.024653345
96	0xbc180d1c	-0.009280469
97	0x3c7750a4	0.01509491
98	0x3c0106b4	0.007875133
99	0x3c934530	0.017977327
100	0xbafed320	-0.0019441582
101	0x3cbb3b42	0.022855405
102	0x3cf040e2	0.029327814
103	0x3cdff8b2	0.027340267
104	0xbb8b8f58	-0.0042590313
105	0xbccb3758	-0.024806663
106	0xbcec38e3	-0.02883572
107	0xbc2aed7c	-0.010432597
108	0xbc8da5a2	-0.017290894
109	0xbd1bd067	-0.038040545
110	0xbc859605	-0.016306886
111	0xbc26c5b8	-0.010178976
112	0xbaa9bfdb	-0.0012950854
113	0xbcc3a112	-0.023880515
114	0x3c619190	0.013767615
115	0x3b883209	0.0041563553
116	0x3aa46a23	0.0012543838
117	0xbd6600bd	-0.056153048
118	0xbd1fdc41	-0.03902841
119	0xbcc8bdc6	-0.024504554
120	0x3c8d8041	0.01727307
121	0xbb779e16	-0.0037783436
122	0xbd5e0f17	-0.05421361
123	0xbcd6dc5c	-0.026228122
124	0xbc18980c	-0.009313595
125	0xbce10b71	-0.027471276
126	0x3c895d8b	0.016768238
127	0xbd1e6ce8	-0.03867808
128	0xbd608787	-0.05481675
129	0xbd10fb3f	-0.035395857
130	0xbd3e1f85	-0.046416778
131	0x3be2b35b	0.0069183535
132	0xbbeffa18	-0.0073235147
133	0xbd8f81e9	-0.070072
134	0xbcfa8604	-0.030581482
135	0x3d043141	0.032273535
136	0xbc105e2a	-0.008811513
137	0xbd3020bb	-0.042999964
138	0xbd2c64fd	-0.042088497
139	0xbd195536	-0.03743478
140	0xbd93d161	-0.0721767
141	0xbcb43319	-0.021997022
142	0xbd0c41a1	-0.034242276
143	0xbab00eda	-0.001343216
144	0xbce20914	-0.02759222
145	0xbd2976b8	-0.041372985
146	0x3d074fa1	0.033034924
147	0xbd147075	-0.03624006
148	0xbcdb4476	-0.026766043
149	0xbb5d4721	-0.003376432
150	0xbd7654e9	-0.06013957
151	0xbc638183	-0.0138858585
152	0xbd3ed892	-0.046593256
153	0xbca903d1	-0.020631703
154	0xbac15f62	-0.0014753158
155	0x3bc7913b	0.006090311
156	0xbcba6a82	-0.022755865
157	0xbceddd3d	-0.029036159
158	0xbce3d391	-0.027810844
159	0xbd8bfe4a	-0.06835611
160	0xbd108420	-0.035282254
161	0xbd91fb54	-0.07128015
162	0x3b6d4436	0.0036203987
163	0x3cf96e11	0.030447992
164	0xbc0de2dd	-0.008660045
165	0xbd9282a3	-0.07153823
166	0xbbb16d79	-0.0054146615
167	0xbbf1942a	-0.007372399
168	0xbcf40073	-0.02978537
169	0xbb4f418b	-0.003162476
170	0x3b7fb673	0.003901866
171	0xbd154fc1	-0.036453012
172	0x3c064e47	0.008197374
173	0xbbf9401a	-0.0076065185
174	0x3cc6ada3	0.024252718
175	0xbc6d28d6	-0.014475068
176	0x3c865f97	0.016403003
177	0x3b876296	0.0041316254
178	0xbd6ac2b5	-0.057314593
179	0xbb47c4a5	-0.00304822
180	0xbc88fcea	-0.016722161
181	0xbd37eabf	-0.044901606
182	0xbc4e452e	-0.012589736
183	0x3b48e275	0.0030652557
184	0x3c04a204	0.008095268
185	0xbc7632ac	-0.01502673
186	0xbd95f47a	-0.07322021
187	0xbd1132ad	-0.03544872
188	0xbd1e2855	-0.038612682
189	0x3d086545	0.033299703
190	0x3bda20aa	0.006656726
191	0xbd15abb8	-0.036540717
192	0xbae0ad77	-0.001714154
193	0xbcb5fc04	-0.022214897
194	0xbc6ace48	-0.014331408
195	0xbbfdcf00	-0.0077456236
196	0xbd87edfa	-0.06637187
197	0xbc742213	-0.014900702
198	0xbd8828fc	-0.06648442
199	0xbd32ae6d	-0.043623377
200	0xbd3a7ee9	-0.045531187
201	0xbd889993	-0.06669917
202	0xbd8fcd69	-0.07021601
203	0xbcbd07b8	-0.02307497
204	0xbcb62e3a	-0.02223884
205	0xbc7edbff	-0.015555381
206	0xbc97a9ef	-0.018513648
207	0xbb43febf	-0.002990648
208	0xbd01a0ef	-0.03164762
209	0xbc8bf676	-0.017085295
210	0xbd873ab3	-0.06602993
211	0xbd04bda4	-0.032407418
212	0x3b6e9f77	0.0036410966
213	0xbd52f544	-0.051503435
214	0xbd2d3eac	-0.042296097
215	0xbcfc9121	-0.030830922
216	0x3cd6ba9a	0.026212025
217	0xbc578b21	-0.0131557295
218	0xbd2b1fc1	-0.04177833
219	0xbd1425d9	-0.036168907
220	0xbcd41e9c	-0.025893502
221	0x3cea9463	0.02863521
222	0xbb0756d3	-0.0020651117
223	0xbb363d7f	-0.002780765
224	0x3b064424	0.0020487392
225	0xbcdd8dd7	-0.027045174
226	0xbc674e92	-0.014117854
227	0x3b230aa4	0.0024878168
228	0xbd239329	-0.039935265
229	0x3b237e86	0.002494724
230	0xbcbeeb54	-0.023305573
231	0xbc049543	-0.008092227
232	0xbd38efde	-0.04515063
233	0xbd3ed77a	-0.046592213
234	0xbd0491ee	-0.032365732
235	0x3cef60e3	0.029221004
236	0x3d117dce	0.035520367
237	0xbd27a7e7	-0.04093161
238	0x3c274410	0.010209098
239	0xbcf03eaf	-0.029326765
240	0xbd3c22de	-0.04593169
241	0x3cb52407	0.022111906
242	0xbd55569c	-0.05208455
243	0xbd324660	-0.043524146
244	0xbc96eb20	-0.018422663
245	0xbb0b432a	-0.002124975
246	0xbbe62288	-0.0070231594
247	0xbd507098	-0.050888628
248	0xbd2df597	-0.04247054
249	0x3cfef43c	0.03112232
250	0xbc475037	-0.012165121
251	0x3c99038a	0.018678445
252	0xbcebaead	-0.028769815
253	0xbd64dc5c	-0.055874214
254	0xbd9b93da	-0.0759656
255	0x3ca559bd	0.020184392

fully_connected_1.bias f4 [120]
0	0xbd7bb636	-0.061453067
1	0xbbfbe8e7	-0.007687676
2	0xbd33acfc	-0.043866143
3	0xbc0762ea	-0.008263329
4	0xbdac141d	-0.08402274
5	0xbd18ed11	-0.03733546
6	0xbcba0a06	-0.022709858
7	0xbb3db83a	-0.002894892
8	0x3c8c04bf	0.017092107
9	0xbd4630d9	-0.04838643
10	0xbd44deb0	-0.048063934
11	0xbd5ad0fa	-0.05342195
12	0xbe510fcf	-0.20416187
13	0xbc097d2b	-0.008391659
14	0x3ded5156	0.11587779
15	0xbd777737	-0.060416427
16	0x3d24a34b	0.04019479
17	0xbcc9cdd3	-0.024634277
18	0x3e75a2e9	0.23987927
19	0xbbbbaacd	-0.005727148
20	0xbcc7a8ea	-0.024372537
21	0xbda69bbc	-0.08135173
22	0xbb99a268	-0.00468855
23	0xbd7402b1	-0.05957288
24	0x3ea9ebf6	0.33187836
25	0xbd093861	-0.033501033
26	0xbc0142ee	-0.007889492
27	0x3d0c3d37	0.034238067
28	0xb9e856aa	-0.00044315058
29	0xbc4fc93f	-0.012682258
30	0x3e2efd4d	0.17088814
31	0x3de75074	0.11294642
32	0x3e9ddf14	0.30834258
33	0xbd5b609f	-0.053558942
34	0xbd3c610a	-0.04599098
35	0xbcce7fcf	-0.025207428
36	0x3e6597cf	0.22421192
37	0xbd4d2159	-0.05008063
38	0xbd468a96	-0.04847201
39	0xbc40636e	-0.011742456
40	0xbed98b08	-0.42488885
41	0xbda0d560	-0.07853198
42	0xbd60c110	-0.05487162
43	0x3f0429eb	0.5162646
44	0x3edf060d	0.43559304
45	0x3f3b0df8	0.7306819
46	0xbd2e873c	-0.04260944
47	0x3df774dc	0.12082836
48	0xbd21589d	-0.03939115
49	0xbe6aaf0c	-0.22918338
50	0x3d1a690b	0.037697833
51	0x3d15b835	0.036552627
52	0x3f5c3ac9	0.860272
53	0xbd47bfcd	-0.0487669
54	0xbd3fb315	-0.046801645
55	0xbd3ce40a	-0.046115912
56	0x3ee571f1	0.44813493
57	0xbd1bb5ba	-0.038015105
58	0x3f14bc5a	0.580999
59	0xbb954c9c	-0.0045562517
60	0x3c70aefd	0.014690158
61	0xbd58123b	-0.05275176
62	0xbd122db1	-0.035688106
63	0xbca947a9	-0.020664053
64	0x3f0a6485	0.5405963
65	0xbd90ca20	-0.07069802
66	0xbdf5c47b	-0.12000366
67	0x3ecc6dc3	0.39927492
68	0xbba7e46a	-0.0051236646
69	0xbcadb073	-0.021202302
70	0x3efcadbc	0.493513
71	0x3c55bedd	0.013045994
72	0x3e0120f3	0.12610225
73	0xbd2ee589	-0.04269937
74	0xbbe838c7	-0.0070868465
75	0xbe01c794	-0.1267379
76	0xbd6e5bd7	-0.058193054
77	0x3b8feab3	0.004391992
78	0xbd5e220b	-0.054231685
79	0x3eb0e336	0.34548348
80	0x3f2d46c0	0.6768608
81	0xbedb76d9	-0.4286411
82	0xbd84afdf	-0.06478857
83	0x3d3f4acd	0.046702195
84	0x3e2e18e3	0.17001681
85	0x3ee2dc83	0.44308862
86	0x3ed2e49c	0.4119004
87	0xbd538f0b	-0.05165009
88	0xbd1f52f1	-0.03889746
89	0x3c7637a9	0.015027919
90	0xbd4230e3	-0.047409903
91	0x3ec6929d	0.38783732
92	0xbd2a2897	-0.041542616
93	0xbe2510e1	-0.1611972
94	0x3e66b3d2	0.22529534
95	0xbc90a9a5	-0.017659018
96	0xbd8b8b09	-0.06813628
97	0xbc788824	-0.015169177
98	0x3d7a3dd2	0.061094113
99	0xbc4a8271	-0.012360201
100	0x3a457ae3	0.0007533265
101	0xbb5efc00	-0.0034024715
102	0xbb0feadf	-0.0021960062
103	0xbc7629b4	-0.015024591
104	0xbd1dd8f7	-0.038536992
105	0xbcd5fd53	-0.026121771
106	0xbeea530f	-0.45766494
107	0x3c973348	0.01845707
108	0xbe7bb345	-0.24580105
109	0xbbf55c92	-0.007487842
110	0x3e9d10d0	0.3067689
111	0xbea29e80	-0.3176155
112	0xbdd4b70d	-0.10386477
113	0xbde427c2	-0.11140396
114	0xbede4204	-0.4340974
115	0xbf22c74e	-0.63585365
116	0xbd4d0b70	-0.050059736
117	0xbd9b5399	-0.07584304
118	0xbd9002d3	-0.07031789
119	0xbd30df05	-0.043181438

fully_connected_2.weight f4 [84, 120]
0	0x3d82e270	0.06390846
1	0xbb837eb4	-0.004012907
2	0x3dcc0729	0.09962303
3	0x3d5de918	0.054177374
4	0x3e45d0c5	0.1931792
5	0x3d7a8fe0	0.061172366
6	0xbcdb466b	-0.026766976
7	0x3d4a847d	0.049442757
8	0x3cb636b6	0.022242885
9	0x3d7b1faa	0.061309494
10	0x3c88603e	0.016647454
11	0xbd0891ee	-0.033342294
12	0x3e9859ed	0.29756108
13	0xba9cc83f	-0.0011961533
14	0x3e5406df	0.20705746
15	0xbdea9d85	-0.11455826
16	0x3b8a7ac2	0.0042260597
17	0x3dd0543e	0.10172318
18	0xbdc690e9	-0.09695608
19	0xbd97275b	-0.07380553
20	0xbcc101f5	-0.023560503
21	0xbca12f33	-0.019675827
22	0xbd3aca21	-0.04560292
23	0xbc9005a7	-0.01758082
24	0xbdf89b26	-0.12138967
25	0xbd862113	-0.06549277
26	0xbcd8c8c4	-0.02646292
27	0xbdb17a3e	-0.08665894
28	0x3e1132a6	0.14179477
29	0xbcc1356b	-0.023585042
30	0xbe3276c0	-0.17428112
31	0xbe3d20f1	-0.18469597
32	0x3e0413eb	0.12898223
33	0xbd315fd2	-0.043304272
34	0x3cd66743	0.026172286
35	0xbcc77695	-0.024348537
36	0xbeec960e	-0.46208233
37	0xbd865a57	-0.065602
38	0xbbb56243	-0.0055353954
39	0x3d3b4e08	0.045728713
40	0x3e54b9ea	0.20774046
41	0x3d2555c8	0.04036501
42	0xbccf8c9d	-0.025335604
43	0xbcc41e3d	-0.0239402
44	0x3d7cbef7	0.061705556
45	0xbe20b702	-0.15694812
46	0xbc8a0624	-0.016848631
47	0xbe14e43f	-0.14540194
48	0x3d490ece	0.049086384
49	0xbc06e453	-0.008233148
50	0xbeefa0f7	-0.46802494
51	0xbf0ff20f	-0.5622873
52	0x3e5e0440	0.21681309
53	0x3d38093d	0.044930685
54	0xbc5a758a	-0.013333688
55	0x3da44286	0.08020501
56	0x3d4cd78b	0.050010245
57	0xbcc1f3cc	-0.023675822
58	0xbd2caced	-0.042157102
59	0x3d97b8cd	0.07408295
60	0x3d4f6a01	0.050638203
61	0xbbccf2d8	-0.006254535
62	0x3d61378a	0.054984607
63	0x3dac0ca8	0.084008515
64	0xbecdcdad	-0.4019598
65	0x3d3c7f28	0.046019703
66	0x3bfc76b5	0.0077045807
67	0xbe3d80b0	-0.18506122
68	0x3caa4f24	0.02078969
69	0xbc931106	-0.017952453
70	0xbd500a11	-0.05079085
71	0x3d5762b3	0.05258436
72	0xbef4977f	-0.47771832
73	0xbea58920	-0.3233118
74	0xbdc52fd7	-0.09628265
75	0xbe196b9e	-0.14982459
76	0xbc29864f	-0.010346963
77	0x3d0925dc	0.03348337
78	0x3a907cbc	0.0011023502
79	0xbde708e5	-0.11280993
80	0xbda722cd	-0.081609346
81	0x3e93d2ca	0.28871757
82	0x3d5a23c4	0.053256765
83	0xb9b7678d	-0.0003498163
84	0x3d0de20a	0.034639396
85	0x3d2fc5e6	0.04291334
86	0x3d8f920e	0.070102796
87	0x3d879efa	0.06622119
88	0xbd59627f	-0.05307245
89	0xbdd607bf	-0.10450696
90	0xbde09e52	-0.10967697
91	0x3e1b3b30	0.15159297
92	0xbda94b87	-0.08266359
93	0xbcb5e5cb	-0.0222043
94	0xbe7ec0fa	-0.24878302
95	0xbd075dfd	-0.03304862
96	0x3d9749c1	0.07387114
97	0x3bd706d7	0.0065620947
98	0xbdfdfb9b	-0.124015056
99	0xbd58c487	-0.052921798
100	0xbbbf629d	-0.005840613
101	0x3c2aa32a	0.010414878
102	0xbd7816b6	-0.060568534
103	0xbbd70208	-0.0065615214
104	0x3d6d3eb3	0.057921123
105	0xbdbef52c	-0.093241066
106	0x3d5d8c9c	0.054089174
107	0xbefb0df2	-0.49034077
108	0x3c86fc43	0.01647771
109	0x3db3fed5	0.0878884
110	0xbe27d397	-0.16389309
111	0xbcceb191	-0.025231155
112	0xbd7a38f8	-0.061089486
113	0x3e29797c	0.16550249
114	0xbdc5a26e	-0.09650122
115	0x3e2d0a51	0.16898467
116	0x3dc2015f	0.09472918
117	0x3ce6f041	0.028190734
118	0xbdaa471c	-0.08314344
119	0xbbecf2ac	-0.007231077
120	0xbdad8d8b	-0.08474263
121	0x3afd9800	0.0019347668
122	0x3d004336	0.031314097
123	0x3db829a2	0.08992316
124	0xbdd1b956	-0.10240428
125	0x3cc1efc8	0.023673907
126	0x3afac3c0	0.0019131824
127	0xbd364720	-0.044501424
128	0x3d3bc310	0.045840323
129	0xbbbf8f10	-0.005845912
130	0xbba7c790	-0.0051202253
131	0xbd4c2c40	-0.049846888
132	0x3b965dc9	0.004588817
133	0xbc416008	-0.011802681
134	0xbbda2461	-0.0066571687
135	0xbc6eb6e0	-0.014569968
136	0xbdc4e2e3	-0.09613588
137	0xbcb704ac	-0.022341095
138	0xbc85ce0a	-0.016333599
139	0xbd13c810	-0.036079466
140	0x3cccf514	0.025019206
141	0x3db079ec	0.08617005
142	0xbd451747	-0.048117902
143	0xbd5b06c2	-0.05347324
144	0xbd91fbf2	-0.07128133
145	0x3cf23018	0.029563949
146	0x3c427fe8	0.011871316
147	0xbd688fbb	-0.056777697
148	0xbd8a01b6	-0.067386076
149	0xbdaf49ff	-0.085590355
150	0x3d130b93	0.03589971
151	0xbdc46615	-0.09589783
152	0xbb74e583	-0.0037368245
153	0xbce2a53c	-0.02766668
154	0xbdae7198	-0.0851776
155	0x3d8625e6	0.06550197
156	0xbddf0a5a	-0.10890646
157	0x3c2b9638	0.010472827
158	0x3cb894e4	0.022531934
159	0xbd9b973a	-0.075972036
160	0xbcfb9c1b	-0.030714085
161	0x3d2f11dc	0.04274164
162	0x3da5d66e	0.0809754
163	0xbceddb7f	-0.029035328
164	0x39e08bbf	0.00042828728
165	0xbc735a6f	-0.014853104
166	0xbd833065	-0.06405715
167	0xbd99ff19	-0.07519359
168	0x3da94f82	0.08267118
169	0xbe108960	-0.14114904
170	0x3dde5741	0.10856486
171	0xbd32ca3c	-0.043649897
172	0xbb248179	-0.0025101586
173	0xbd8c9d0e	-0.06865893
174	0x3b3e2a40	0.0029016882
175	0xbce6a140	-0.028153062
176	0x3c6b6932	0.014368342
177	0xbcf27c3a	-0.029600251
178	0xbd3e29d6	-0.046426617
179	0xbd8a5df8	-0.06756204
180	0xbbd4ff50	-0.006500162
181	0xbd3c590e	-0.045983367
182	0xbcdcf31c	-0.026971392
183	0xbd95bcbd	-0.073113896
184	0xbd0e467b	-0.034735184
185	0x3c87caa0	0.016576111
186	0x3da32996	0.07966916
187	0xbde1a8e4	-0.110185415
188	0xbd5c6bd3	-0.053813767
189	0x3d8bbc3e	0.06823014
190	0xbc80371d	-0.01565128
191	0xbd5af7c3	-0.05345894
192	0xbd3dd7cd	-0.04634838
193	0xbdf148b5	-0.11781446
194	0x3caf5a84	0.021405466
195	0xbd0d20a4	-0.034454957
196	0xbc9ef944	-0.019405968
197	0x3ca23180	0.019798994
198	0xbd359d3c	-0.044339404
199	0xbdeb9cd2	-0.115045205
200	0xbd2bd894	-0.041954592
201	0xbd2ef667	-0.042715456
202	0x3d9e85fa	0.07740398
203	0xbe125bce	-0.14292833
204	0xbd365375	-0.044513185
205	0xbe0b6747	-0.13613616
206	0xbd3a81cc	-0.04553394
207	0x3c861d64	0.016371436
208	0xbbb7b6d0	-0.0056065097
209	0xbe0e91ad	-0.13922758
210	0xbd5a473a	-0.053290583
211	0xbd9d91f9	-0.07693858
212	0x3d2a3098	0.04155025
213	0xbe0a4e44	-0.13506418
214	0xbdb9db6b	-0.09075054
215	0xbb5088c0	-0.003181979
216	0x3c240568	0.010011055
217	0x3d924b10	0.07143223
218	0x3d3f2d05	0.046673793
219	0xbd490baf	-0.049083408
220	0x3d925c72	0.07146539
221	0x3d8fc502	0.07019998
222	0x3c575cc0	0.013144672
223	0x3d139198	0.03602752
224	0x3ce95438	0.028482541
225	0x3d745f18	0.059661
226	0xbe0ec116	-0.13940844
227	0xbc95401c	-0.018219046
228	0xbdd665e3	-0.10468652
229	0xbd85f86a	-0.06541522
230	0xbae460e4	-0.0017423895
231	0xbd785acd	-0.06063347
232	0xbdd3f89d	-0.103501536
233	0xbdc33e3f	-0.09533357
234	0xbd269e7c	-0.040678486
235	0xbd46c902	-0.04853154
236	0x3da4bbaa	0.080436066
237	0xbc924874	-0.017856814
238	0xbda75daa	-0.08172162
239	0x3d1c3f04	0.038146034
240	0xbd2d0d7a	-0.04224918
241	0xbd96f223	-0.07370403
242	0xbe138344	-0.14405543
243	0x3d61806e	0.05505412
244	0xbeebc1a6	-0.4604618
245	0x3dfd0374	0.12354174
246	0x3d74524c	0.059648797
247	0x3dd4a137	0.10382312
248	0xbc9f5c95	-0.019453326
249	0x3d8b4840	0.0680089
250	0xbd8137a0	-0.06309438
251	0x3e882029	0.26587036
252	0xbe99205b	-0.29907498
253	0x3c39b468	0.011334516
254	0xbe5091eb	-0.20368163
255	0xbd86dad5	-0.06584708

fully_connected_2.bias f4 [84]
0	0x3e2bd858	0.16781747
1	0xbe18a85e	-0.14907977
2	0x3e8ae64e	0.27128834
3	0xbe0eebce	-0.1395714
4	0xbd1ecf15	-0.038771708
5	0x3e8f74cc	0.28018796
6	0xbe1bff9b	-0.15234224
7	0xbe17157d	-0.14754291
8	0x3ec30688	0.3809092
9	0x3e9c7364	0.30556786
10	0xbdd0d876	-0.10197537
11	0x3ed20bdd	0.41024676
12	0xbc5d4f04	-0.013507608
13	0xbe23057d	-0.15920062
14	0xbea7c35d	-0.32766238
15	0x3e9e5c6c	0.30929887
16	0xbe94d849	-0.29071262
17	0x3e81ae11	0.25328115
18	0x3e6a92bc	0.22907537
19	0xbe63ef6c	-0.22259301
20	0x3ebd260c	0.3694309
21	0x3dff977c	0.12480065
22	0x3f2fa2ff	0.6860809
23	0x3f45a3a8	0.77202845
24	0xbe4a75d5	-0.19771512
25	0x3e38a65e	0.18032214
26	0xbe89f77b	-0.26946625
27	0xbe1bf843	-0.15231423
28	0x3e3b6971	0.18301941
29	0xbe385efd	-0.18004985
30	0xbd7a3681	-0.061087135
31	0xbea2530a	-0.3170398
32	0x3dca3633	0.09873619
33	0xbe101782	-0.14071468
34	0x3eba640e	0.3640446
35	0x3ddb3938	0.10704273
36	0xbe65fcb8	-0.22459686
37	0x3f187f04	0.5956881
38	0x3e9f8f51	0.3116403
39	0xbd3577cb	-0.044303697
40	0x3e2aa615	0.16664918
41	0x3e619ab4	0.22031671
42	0x3e0fd20d	0.14044972
43	0xbd88b2c3	-0.06674721
44	0xbdf9e01a	-0.12200947
45	0x3d22d8a4	0.039757386
46	0xbe0bb13a	-0.13641825
47	0xbdb22aaa	-0.08699544
48	0x3ec44f41	0.38341716
49	0x3f4cf57a	0.8006207
50	0xbe070755	-0.1318639
51	0xbe67b534	-0.22627717
52	0x3eddf742	0.43352705
53	0xbde4f669	-0.111798115
54	0x3e92c5ab	0.28666434
55	0xbdb955ed	-0.09049592
56	0xbe59a362	-0.21253732
57	0xbe23748f	-0.15962432
58	0x3dbd1fe7	0.092346005
59	0xbe70d58e	-0.23518965
60	0x3e9fc95a	0.31208307
61	0x3d36d765	0.04463901
62	0xbe54b47e	-0.20771977
63	0xbd0ec9c4	-0.034860387
64	0x3e046c2d	0.12931891
65	0x3edea8a9	0.43488052
66	0x3e429cb9	0.19005097
67	0xbdec1790	-0.11527932
68	0x3f3efe22	0.74606526
69	0x3e7376b0	0.23775744
70	0x3ef57771	0.4794269
71	0x3e5eee55	0.21770604
72	0xbe81a1af	-0.25318667
73	0xbeaf6829	-0.34259155
74	0x3f386816	0.7203382
75	0x3f637183	0.8884508
76	0x3f0e6f36	0.55638444
77	0x3da19110	0.078889966
78	0x3eedb0be	0.46423906
79	0x3dda103b	0.10647627
80	0x3e8d050d	0.27542916
81	0x3ed12532	0.4084869
82	0x3e59d86e	0.21273968
83	0xbc036426	-0.008019483

fully_connected_3.weight f4 [10, 84]
0	0xbd8be52f	-0.06830823
1	0x3cf9d6de	0.030497964
2	0xbed43d16	-0.41452855
3	0xbd0f3cdb	-0.034970146
4	0x3cd0fc3d	0.025510902
5	0x3da4c0ee	0.08044611
6	0x3db9362f	0.09043538
7	0xbd1d7c3c	-0.038448557
8	0x3b230928	0.0024877284
9	0xbe1b4e76	-0.15166649
10	0xbd75a8f6	-0.059975587
11	0xbe1bb818	-0.15206945
12	0xbea95979	-0.33076075
13	0xbd49cf3d	-0.049269903
14	0x3dbe3393	0.09287181
15	0xbd5637fe	-0.052299492
16	0x3d437fe4	0.047729388
17	0xbe24a2db	-0.1607775
18	0xbdcc8f0d	-0.09988222
19	0xbd9d539b	-0.07681962
20	0x3e186f57	0.14886223
21	0x3e20edb0	0.1571567
22	0x3e21f442	0.15815833
23	0xbec4fbaa	-0.38473254
24	0x3d776ba1	0.060405377
25	0xbcbf053d	-0.023317927
26	0xbcf37927	-0.029720856
27	0xbe085e54	-0.13317233
28	0x3d96c8de	0.07362531
29	0xbd354a2a	-0.04426018
30	0xbc899e88	-0.016799226
31	0xbed9002f	-0.42382953
32	0xbeea58e0	-0.4577093
33	0xbe7c5ca2	-0.24644712
34	0xbdb7f4a9	-0.08982212
35	0xbeb4bf33	-0.35302123
36	0x3df969ca	0.12178381
37	0x3c033d33	0.0080101965
38	0x3dce095b	0.10060378
39	0x3d2a30cf	0.041550454
40	0x3d575a8f	0.052576598
41	0xbeb7acdc	-0.3587407
42	0x3e88f17f	0.26746747
43	0xbf0a548e	-0.5403527
44	0xbd3f38c3	-0.04668499
45	0xbd80624a	-0.06268747
46	0xbec44f20	-0.38341618
47	0xbe012676	-0.12612328
48	0xbeb86277	-0.36012623
49	0xbeabd424	-0.33560288
50	0x3d9be230	0.07611501
51	0xbe11e91c	-0.1424908
52	0xbe27c889	-0.16385092
53	0x3d019b47	0.031642225
54	0xbecef5bd	-0.40421858
55	0x3c633513	0.013867634
56	0x3d8bc6f3	0.06825056
57	0xbe2523b4	-0.16126901
58	0xbd2682ba	-0.040652014
59	0x3e8a633c	0.27028835
60	0x3df80d40	0.12111902
61	0x3d5777a9	0.05260435
62	0x3e2cf3af	0.16889833
63	0x3e3fd894	0.18734962
64	0xbd9b4694	-0.07581821
65	0xbe0b5683	-0.1360722
66	0x3da37015	0.07980362
67	0x3e368a69	0.17826237
68	0xbdea6f0d	-0.114469625
69	0x3e105f32	0.14098814
70	0xbe490803	-0.19631962
71	0xbe0c8fcc	-0.13726729
72	0xbe6e1e80	-0.23253822
73	0xbd0b99cb	-0.034082215
74	0x3e208165	0.1567436
75	0xbf063be7	-0.52435154
76	0xbedaf863	-0.4276763
77	0x3dcd30b8	0.10019058
78	0x3e1b19c2	0.15146545
79	0xbda2fc8a	-0.07958324
80	0x3ca96d13	0.020681893
81	0xbdc49468	-0.09598619
82	0x3c419b41	0.011816801
83	0xbe49153f	-0.19637011
84	0x3cad8736	0.021182638
85	0xbde45f35	-0.11150972
86	0x3e1e0c64	0.15434414
87	0xbd8674b9	-0.06565232
88	0xbe9ae284	-0.30250943
89	0xbe0159f0	-0.12631965
90	0x3cda08a2	0.026615445
91	0x3a97d5ce	0.0011584105
92	0x3e193713	0.14962415
93	0xbdebf961	-0.115221746
94	0x3d68945a	0.056782104
95	0xbebf06ac	-0.37309778
96	0xbe1362d7	-0.14393173
97	0xbd17d4ed	-0.037068296
98	0x3d7a2003	0.061065685
99	0xbf0e13dd	-0.5549906
100	0x3d0b8f77	0.034072366
101	0xbed1aa28	-0.4095013
102	0x3e0ad253	0.13556795
103	0xbd2bdbbd	-0.041957606
104	0xbe561749	-0.2090732
105	0x3e33849a	0.17531052
106	0xbe02cbaf	-0.12773012
107	0xbe8db242	-0.27675062
108	0x3e46cef7	0.19414888
109	0xbebeeb8a	-0.37289077
110	0x3e187640	0.14888859
111	0xbe150520	-0.14552736
112	0xbead8527	-0.3389065
113	0xbe400ceb	-0.18754928
114	0xbe1e7b0b	-0.15476625
115	0xbf221e6c	-0.6332767
116	0x3b74eaad	0.0037371323
117	0xbe05e028	-0.1307379
118	0x3e73c925	0.238072
119	0xbf2378df	-0.6385631
120	0x3ca05656	0.019572418
121	0xbe2b5518	-0.1673168
122	0x3e08cfe0	0.13360548
123	0x3dd2f06c	0.10299763
124	0x3dafd6b8	0.08585876
125	0xbeffd627	-0.49968073
126	0x3dc17711	0.09446538
127	0xbd7bebff	-0.06150436
128	0xbeaaf07a	-0.33386594
129	0x3d313147	0.043259885
130	0x3dedb643	0.11607029
131	0x3ec247b9	0.37945345
132	0xbe222bf5	-0.15837081
133	0xbf1b2911	-0.6060954
134	0xbd413d8e	-0.047177844
135	0xbf3f491e	-0.7472094
136	0x3e0c6ef3	0.13714199
137	0x3e2727ae	0.1632373
138	0xbd403fa3	-0.04693569
139	0xbd9b6ee2	-0.075895086
140	0xbe8c57e1	-0.27410796
141	0xbeb986f2	-0.36235768
142	0xbea282cf	-0.31740424
143	0x3e1e2089	0.15442099
144	0x3b9b1b3f	0.0047334726
145	0xbe187fe4	-0.14892536
146	0x3ddc1b56	0.107474014
147	0x3e1e944d	0.1548626
148	0xbeeba8dd	-0.4602727
149	0x3d1979a3	0.037469517
150	0xbdb2d15a	-0.08731337
151	0xbe91858e	-0.28422207
152	0xbed43c2a	-0.41452152
153	0xbecd0baa	-0.4004796
154	0xbe8ae0fa	-0.27124768
155	0xbeade4b3	-0.33963546
156	0x3e6ab4c0	0.22920513
157	0x3e5f769f	0.21822594
158	0x3da031b8	0.07821983
159	0xb923eb3c	-0.00015632523
160	0xbe81e8fc	-0.25373065
161	0xbe303894	-0.17209083
162	0xbd6c76ce	-0.05773049
163	0xbd27293e	-0.040810816
164	0xbf126f06	-0.5720066
165	0xbe23e31c	-0.16004604
166	0xbde2347f	-0.11045169
167	0x3ce15f90	0.027511388
168	0xbe6be154	-0.23035175
169	0xbe035e8e	-0.12829039
170	0xbd04aacc	-0.032389447
171	0xbba3d86b	-0.0050001643
172	0xbe971458	-0.2950771
173	0xbdb7e62b	-0.08979448
174	0xbd25aa32	-0.040445514
175	0xbcd54681	-0.026034595
176	0xbe7e2e5f	-0.24822377
177	0x3dca7208	0.09885031
178	0xbd06c825	-0.032905716
179	0xbe785513	-0.24251203
180	0xbe8a94d5	-0.27066675
181	0xbd9155f0	-0.070964694
182	0xbd320d89	-0.04346994
183	0x3d874dcb	0.06606635
184	0xbe830e3c	-0.25596797
185	0xbe33ae18	-0.1754688
186	0xbeea0085	-0.4570352
187	0xbe03c54d	-0.12868233
188	0x3e4af4c2	0.1981993
189	0xbe5ca9b0	-0.21549106
190	0xbec5971d	-0.38591853
191	0xbd8ea886	-0.06965737
192	0x3db739dc	0.08946583
193	0xbdca75a7	-0.09885722
194	0x3e1a8846	0.15091047
195	0x3c2e6eb9	0.0106465155
196	0x3d53c123	0.05169786
197	0x3da57a50	0.0807997
198	0x3e17ea11	0.14835383
199	0x3e5076ab	0.20357768
200	0xbef6b349	-0.4818366
201	0x3c44eebd	0.01201981
202	0xbe6c9c13	-0.23106413
203	0xbf26f50f	-0.6521768
204	0x3e0e4502	0.13893512
205	0x3e0f23a5	0.13978441
206	0xbda0c2b8	-0.0784964
207	0xbd5c3edb	-0.05377088
208	0xbcfaba58	-0.030606434
209	0x3d551bc1	0.05202842
210	0x3db7b59c	0.08970186
211	0xbd8aa559	-0.06769819
212	0xbe8ae24d	-0.2712578
213	0xbe776f8c	-0.24163646
214	0x3a0cc501	0.0005369932
215	0xbeb9c8b5	-0.3628594
216	0x3e550c2e	0.20805427
217	0x3dd421b0	0.10357988
218	0xbd8de050	-0.0692755
219	0xbdfe82f3	-0.1242732
220	0x3b17fb1f	0.0023190451
221	0x3dd705dd	0.10499165
222	0x3d5f02eb	0.054446142
223	0xbd20daba	-0.039271094
224	0xbc61a9c9	-0.01377339
225	0xbc3734c0	-0.01118201
226	0xbe922f28	-0.28551602
227	0xbd7f1e36	-0.06228467
228	0xbe003491	-0.12520052
229	0x3e0520c9	0.13000788
230	0xbd50844d	-0.05090742
231	0xbe3fe01b	-0.18737833
232	0xbe643fe8	-0.22290003
233	0xbe0679dd	-0.13132425
234	0x3d2e15a6	0.042501114
235	0x3d33186d	0.043724466
236	0xbe33419b	-0.17505495
237	0x3e592e86	0.21209154
238	0xbed21a5c	-0.41035736
239	0x3eb5fdd6	0.35545224
240	0x3c619bbd	0.013770041
241	0xbe3fbd49	-0.1872455
242	0x3d427d93	0.04748304
243	0x3e1a0480	0.15040779
244	0xbe1a3d4a	-0.15062442
245	0x3d5dfcd2	0.054196186
246	0xbe634e39	-0.22197808
247	0x3dfc1591	0.12308801
248	0x3e4e9346	0.20173368
249	0xbd42c2a5	-0.04754891
250	0xbc9dc04f	-0.019256739
251	0xbe1e457e	-0.15456197
252	0xbdb97d93	-0.090571545
253	0xbe5217e1	-0.20516922
254	0xbe4718ff	-0.19443129
255	0xbd1ff7a9	-0.039054547

fully_connected_3.bias f4 [10]
0	0xbec64fe0	-0.38732815
1	0xbe98e857	-0.2986476
2	0xbd9a8f31	-0.07546843
3	0x3ef85efc	0.48509967
4	0x3eb61a21	0.3556681
5	0xbdbd4277	-0.09241193
6	0x3d9ad86e	0.07560812
7	0xbd9ec8d2	-0.07753147
8	0x3eca4a4f	0.39509818
9	0xbd84e577	-0.064890794
