02-ANN-Artificial-Neural-Networks/scratch/my_iris_model.pt (torch_old, 1640 bytes, 6 tensors)

fc1.weight f4 [8, 4]
0.12120567 -0.43858 -0.46194848 -0.04376643 -0.3870318 0.07934177 0.14807653 -0.4770878
0.37189612 0.089449115 0.57705534 -0.04676048 0.7636228 0.649199 -0.44091856 -1.3608227
0.3509167 -0.6458071 0.817564 0.94949764 0.47227535 0.9446314 -0.74885535 -1.1533586
0.16464484 -0.111353755 -0.42134798 -0.3553493 -0.31912696 0.14395738 -0.3496034 0.22803837
00000000: ae3a f83d 8f8d e0be 8384 ecbe 6e44 33bd
00000010: 0829 c6be f07d a23d 60a1 173e da44 f4be
00000020: 2b69 be3e 1931 b73d e6b9 133f eb87 3fbd
00000030: c97c 433f e831 263f 14c0 e1be 702f aebf
00000040: 5bab b33e 9d53 25bf e04b 513f 4712 733f
00000050: 13ce f13e 5dd3 713f fcb4 3fbf 41a1 93bf
00000060: a898 283e 700d e4bd ecba d7be 58f0 b5be
00000070: 9c64 a3be 9069 133e 38ff b2be e482 693e

fc1.bias f4 [8]
0.18593247 -0.20286602 0.6704546 0.77438295 -0.1637142 0.7040433 -0.31223232 0.3780589
00000000: 1565 3e3e 1cbc 4fbe eaa2 2b3f f63d 463f
00000010: b2a4 27be 2f3c 343f eadc 9fbe f090 c13e

fc2.weight f4 [9, 8]
-0.2174119 0.08211541 0.10380887 -0.35319132 -0.41831264 0.10017468 -0.3494075 -0.263886
0.17289221 -0.11852983 0.8347496 -0.09406981 0.568205 -0.6715641 0.06991243 -0.32654905
-0.35453817 -0.2716259 0.1348772 -0.5668402 0.64319026 -0.7773664 0.30476496 -0.21013083
-0.07368564 -0.060686797 0.17709716 -0.041765776 -0.13243023 -0.118443266 -0.30017546 -0.11276427
0.12669094 -0.19118746 0.11750727 -0.7309795 0.8054972 -0.3095627 -0.20340693 0.011390448
-0.019687474 0.06268561 -0.22976097 -0.22057456 -0.051930577 -0.2718181 0.03937459 -0.1807519
-0.2571917 -0.017445713 0.31905764 0.07619575 0.7925823 -0.5777288 -0.11047746 -0.062431544
-0.12986188 -0.34292972 0.6268462 0.51619804 -0.18591215 0.91573626 -0.35234165 0.31245807
-0.337548 -0.20817648 0.12272372 -0.16028081 -0.17695962 -0.3074023 0.10800251 0.2850211
00000000: 3aa1 5ebe 202c a83d bf99 d43d 7ed5 b4be
00000010: 132d d6be 6228 cd3d 8ae5 b2be 111c 87be
00000020: a80a 313e c4bf f2bd 26b2 553f aca7 c0bd
00000030: e275 113f a0eb 2bbf 402e 8f3d 7031 a7be
00000040: 0786 b5be 8d12 8bbe 401d 0a3e 701c 11bf
00000050: 1ea8 243f 7c01 47bf 270a 9c3e 892c 57be
00000060: 7fe8 96bd b892 78bd f558 353e 9712 2bbd
00000070: ca9b 07be 6292 f2bd 99b0 99be f4f0 e6bd
00000080: 45bb 013e a5c6 43be a7a7 f03d 7921 3bbf
00000090: 1135 4e3f 017f 9ebe e849 50be 009f 3a3c
000000a0: a047 a1bc 5061 803d 7646 6bbe 4cde 61be
000000b0: 28b5 54bd be2b 8bbe 4047 213d 0717 39be
000000c0: a1ae 83be 50ea 8ebc 865b a33e 840c 9c3d
000000d0: ace6 4a3f 09e6 13bf 0242 e2bd 38b8 7fbd
000000e0: 83fa 04be 7c94 afbe fe78 203f 8e25 043f
000000f0: c15f 3ebe b16d 6a3f 2066 b4be 81fa 9f3e
00000100: 17d3 acbe 372c 55be 9356 fb3d a720 24be
00000110: e734 35be d663 9dbe 6c30 dd3d 49ee 913e

fc2.bias f4 [9]
0.018072093 0.5101068 -0.67532766 -0.44345972 -0.56844693 -0.035856277 0.016115418 0.47855926
-0.028674992
00000000: ed0b 943c 5c96 023f 46e2 2cbf 270d e3be
00000010: bd85 11bf 08de 12bd 7b04 843c b805 f53e
00000020: d1e7 eabc

out.weight f4 [3, 9]
-0.13945578 -0.52687895 -0.15688947 -0.037399806 -0.7365864 0.22666267 -0.5420841 0.63436145
0.29845372 0.10006022 0.5085296 -0.9521134 -0.1345778 -0.5925709 0.27184823 0.37717408
0.09059487 0.2062389 -0.19183846 0.24979627 0.63167375 -0.037280556 0.69542116 -0.32192153
0.7714689 -1.0043453 -0.08860926
00000000: 7fcd 0ebe 8ae1 06bf a2a7 20be 8a30 19bd
00000010: ed90 3cbf 421a 683e 06c6 0abf 8365 223f
00000020: edce 983e 5fec cc3d ff2e 023f b4bd 73bf
00000030: c3ce 09be bab2 17bf b12f 8b3e f61c c13e
00000040: ce89 b93d 4a30 533e 4d71 44be 98ca 7f3e
00000050: 5fb5 213f 7fb3 18bd 1f07 323f e6d2 a4be
00000060: fc7e 453f 638e 80bf c678 b5bd

out.bias f4 [3]
0.57181394 -0.2766828 -0.60401976
00000000: 6662 123f 5ea9 8dbe 0aa1 1abf
