02-ANN-Artificial-Neural-Networks/scratch/TaxiModel.pt (torch_old, 109730 bytes, 20 tensors)

embeds.0.weight f4 [24, 12]
0	0x3eb66713	0.35625514
1	0xbe1d3619	-0.15352668
2	0xbf01cf65	-0.50707084
3	0x3f03dfc8	0.5151334
4	0x3f2e3584	0.6805041
5	0xbf16c698	-0.5889678
6	0x3fb8684c	1.4406829
7	0x3df8b1d4	0.12143293
8	0xbf9436c4	-1.1579213
9	0x3f98835f	1.1915091
10	0x3ed131b4	0.40858233
11	0xbe8f5f59	-0.28002432
12	0x3e079a33	0.13242416
13	0xbfacf629	-1.3512622
14	0x3e9eff42	0.3105412
15	0x3f222e6a	0.6335207
16	0xbea03aa3	-0.31294736
17	0xbfa857a2	-1.3151743
18	0x3f839270	1.0279064
19	0xbef38709	-0.4756396
20	0x3e0c8730	0.13723445
21	0x3f99babd	1.2010113
22	0xbf379af4	-0.71720815
23	0x3ed5827a	0.41701108
24	0x3e89081d	0.26764002
25	0xbf98992a	-1.1921742
26	0xbe9f3419	-0.31094435
27	0x3e8fbfd7	0.2807605
28	0xbe13cd9e	-0.14433905
29	0xbf1a7441	-0.6033364
30	0xbfa751c3	-1.3071827
31	0xbf7451c5	-0.9543727
32	0xbf61bead	-0.88181573
33	0x3ebd6a29	0.36995056
34	0xbf5bf5c9	-0.85921913
35	0x3f2d84a0	0.67780495
36	0xbf970075	-1.1797014
37	0xbe792569	-0.24330677
38	0xbf83f4e7	-1.0309113
39	0x3fa7b541	1.3102189
40	0xbe9dc603	-0.30815133
41	0x3e55bedd	0.2087359
42	0x3eeb4dc8	0.4595778
43	0x3f4981e5	0.7871383
44	0x3ec57e6b	0.38573012
45	0x3e20b637	0.1569451
46	0x3e07dcc9	0.13267817
47	0xbe2aada0	-0.16667795
48	0xbf7dfdcc	-0.9921539
49	0xbf5723d1	-0.84039026
50	0x3fb412d8	1.4068251
51	0xbfa5e8b1	-1.2961637
52	0xbea99956	-0.331248
53	0xbfbf765a	-1.4957993
54	0xbef99499	-0.48746184
55	0x3f99eb1c	1.2024875
56	0x3e5d797d	0.21628375
57	0xbf23c1bb	-0.63967484
58	0x3f45d0a8	0.7727151
59	0x3ee7ae23	0.45250043
60	0x3e9e7efc	0.30956256
61	0xbe6840c4	-0.22680956
62	0x3f34a637	0.70566124
63	0xc026eb23	-2.6081016
64	0xbe919919	-0.28437117
65	0xc01073fe	-2.2570796
66	0xbfdf9eb8	-1.7470312
67	0x3d4126ca	0.047156133
68	0xbf87c346	-1.0606468
69	0x3f1cb60b	0.61215276
70	0x3e51950d	0.20467015
71	0x3f520ad7	0.8204779
72	0x3e69932a	0.22810045
73	0x3f894b2d	1.0726067
74	0x3f13dade	0.5775584
75	0xbf2c8ac9	-0.6739927
76	0xbf15f735	-0.58580333
77	0xbf0db385	-0.5535205
78	0x3f215990	0.63027287
79	0xbe0b5fe3	-0.13610797
80	0x3fc2ca9d	1.5218083
81	0xbfa291f0	-1.2700787
82	0xbe11d9a7	-0.14243184
83	0x3f98c631	1.1935483
84	0x3fdf3d7b	1.7440637
85	0xbe1980d2	-0.14990547
86	0x3d638003	0.055542003
87	0xbf8be330	-1.0928707
88	0xbf306a29	-0.6891199
89	0x3c6f0568	0.014588691
90	0x3f2942dc	0.66117644
91	0xbf9bd26c	-1.2173591
92	0xbf0d9497	-0.55304855
93	0xbf78c2fd	-0.9717253
94	0xbf06a4c7	-0.5259518
95	0xbf898f64	-1.0746884
96	0xbf2c8ea0	-0.6740513
97	0xbf6c5103	-0.92311114
98	0x4028ec0a	2.6394067
99	0x3fb07146	1.3784568
100	0x3c9a61b3	0.018845415
101	0xbf16aca6	-0.5885719
102	0xbf0a53f2	-0.5403434
103	0x3e2a058d	0.1660368
104	0x3f1923a4	0.5982001
105	0x3fa2a19d	1.270557
106	0x3f19dc21	0.60101515
107	0xbf132b17	-0.57487625
108	0x3f89f901	1.0779115
109	0x3d9a7edd	0.075437285
110	0x3f91ab1e	1.1380346
111	0xbd184f58	-0.037185043
112	0xbf9ffc75	-1.2498919
113	0x3f183baa	0.5946604
114	0xbe3c0de5	-0.18364675
115	0xbf8301d0	-1.0234928
116	0x3f68022b	0.9062831
117	0x3fbc5bb4	1.4715486
118	0xbfa69cfd	-1.3016659
119	0x3e3a2084	0.18176466
120	0xbe93f0d5	-0.28894678
121	0x3fc7ed73	1.5619339
122	0xbeb22fd8	-0.34802127
123	0xbe9cebc7	-0.30648634
124	0x3f10e6ca	0.56602156
125	0xbf4c31c1	-0.7976342
126	0xbf7a6bba	-0.9782063
127	0x3f277fcd	0.65429384
128	0x3ecf3b25	0.4047481
129	0xbf0ed75e	-0.55797374
130	0xbfe2906c	-1.7700324
131	0xbf19bdb1	-0.6005507
132	0x3edb32f3	0.4281231
133	0x3f67dfbf	0.90575784
134	0xbf437572	-0.7635108
135	0x3fea117d	1.8286587
136	0x3f3e635b	0.74370354
137	0x3f6e012b	0.9297053
138	0x3f5697fa	0.8382565
139	0xbf69e587	-0.91365856
140	0xbf9fea3a	-1.2493355
141	0xbff96e14	-1.9486718
142	0xbaf851ae	-0.0018945241
143	0xbf26af07	-0.6511082
144	0xbfb68018	-1.4257841
145	0xbdc5daf4	-0.096609026
146	0x3f6d7666	0.92758787
147	0x3f75f7ff	0.96081537
148	0x3d0fc78e	0.03510242
149	0x3f89cff3	1.0766586
150	0xbf831ff4	-1.0244126
151	0x4010b630	2.2611198
152	0xbe5bbfa5	-0.21459825
153	0x3ec8353a	0.3910311
154	0x3fa3b0cc	1.2788329
155	0xbfb247d4	-1.392817
156	0x3fe1994e	1.762491
157	0x3eb2fcaa	0.34958392
158	0xbf312993	-0.6920406
159	0xbf7823a6	-0.96929395
160	0xbf5dc218	-0.8662429
161	0xbd5029ce	-0.050821118
162	0x3e17839a	0.14796296
163	0x3eae7af4	0.3407818
164	0xbe3838b2	-0.17990378
165	0xbd6d8e77	-0.057997193
166	0xbfd0132b	-1.625585
167	0xbfcd41c1	-1.6035691
168	0x3e3625fe	0.1778793
169	0xbfb266d8	-1.3937635
170	0x3f85ea17	1.0462064
171	0x3f6b9499	0.9202362
172	0xbfd9e3b7	-1.7022618
173	0x3dd0b8b2	0.10191478
174	0x3fae0480	1.3595123
175	0xbeb647ce	-0.35601658
176	0xbf891c4b	-1.0711759
177	0x3eca4bca	0.39510947
178	0x3f8c4152	1.0957434
179	0xbf4cbbe0	-0.79974174
180	0xbd9f8682	-0.07789327
181	0xbe736043	-0.2376719
182	0xbda1b588	-0.078959525
183	0x3dafa5b1	0.08576525
184	0x3f65b06e	0.89722335
185	0x3f8560ba	1.0420144
186	0xbe626cb9	-0.22111787
187	0xbff702ec	-1.9297767
188	0x3e7535b1	0.23946263
189	0xbf4f85ee	-0.81063735
190	0xbfcedbdf	-1.6160849
191	0xbf521775	-0.8206704
192	0xbfb387e7	-1.4025849
193	0xbfae7feb	-1.3632787
194	0xbef593a6	-0.4796421
195	0xbfb053a8	-1.377553
196	0xbf75972d	-0.959338
197	0xbbe1329f	-0.0068724896
198	0x3f95b565	1.1695982
199	0x3fe16656	1.7609355
200	0xbd608e39	-0.054823134
201	0x3e81fa2e	0.25386184
202	0xbeb4c639	-0.35307482
203	0xbeb2aa29	-0.34895447
204	0xbefc182b	-0.4923719
205	0xc0059a0e	-2.0875278
206	0xbf7b03bc	-0.98052573
207	0xbf9ebecf	-1.240198
208	0x3de0ff4e	0.109861955
209	0x3ebf674e	0.37383503
210	0xbfc7b90e	-1.5603349
211	0xbe7f416b	-0.24927299
212	0xbf34f9c8	-0.70693636
213	0xbecdf78d	-0.4022793
214	0xbe95d1f6	-0.2926175
215	0x3fa108a9	1.2580768
216	0xbfd8dc39	-1.6942207
217	0xbf354fcd	-0.7082489
218	0xbf0d5169	-0.5520235
219	0xbf7c5c57	-0.985784
220	0x3f4d217b	0.8012921
221	0xbecc2816	-0.39874333
222	0x3ef0d98f	0.47040984
223	0xbabd2389	-0.0014430146
224	0xbf7d620b	-0.98977727
225	0x3dbb31d6	0.09140365
226	0xbf85d304	-1.0455022
227	0xbf6c7beb	-0.92376584
228	0xbfc069e4	-1.5032315
229	0x3e64761f	0.22310685
230	0xbf6287f1	-0.8848868
231	0xbec2760b	-0.37980685
232	0x3eb31347	0.34975645
233	0x3e09d9d6	0.13462004
234	0x3ffb61f5	1.9639269
235	0xbe85b254	-0.26112616
236	0x3fa6919c	1.3013186
237	0xbeccc292	-0.39992195
238	0xbd59b873	-0.05315442
239	0x3f99fb24	1.2029767
240	0xbfeb90c4	-1.8403554
241	0xbf34bd64	-0.7060149
242	0xbd72849f	-0.05920851
243	0xbf17ce99	-0.5929962
244	0xbe29fe71	-0.16600968
245	0xbd8efeb5	-0.06982175
246	0xbf060b56	-0.5236105
247	0xc023db95	-2.5602772
248	0x3eee963e	0.46599
249	0x3f0f1a32	0.55899346
250	0xbf4e406c	-0.8056705
251	0x3f7e02ac	0.99222827
252	0xbfa3c9f8	-1.2796011
253	0xbea026b5	-0.3127953
254	0xbf951167	-1.1645936
255	0xbee28af9	-0.44246653

embeds.1.weight f4 [2, 1]
0	0xbe0bf2e0	-0.13666868
1	0x3e7ac886	0.24490556

embeds.2.weight f4 [7, 4]
0	0x3e844098	0.2583053
1	0x3e948b3d	0.2901248
2	0x3f53ef4e	0.82787025
3	0xbfe39c87	-1.7782143
4	0x3ef3b719	0.4760063
5	0xbf36cea3	-0.7140905
6	0x3f8de6fb	1.1086115
7	0x3ed9cc7d	0.42538825
8	0x3fc0ebaa	1.5071919
9	0xbfacbedc	-1.3495746
10	0xbfba72ff	-1.4566344
11	0x3ed2ea6b	0.41194472
12	0x3f35ea85	0.71060973
13	0xbebf24a9	-0.37332657
14	0xbffd29d8	-1.9778395
15	0xbfcef744	-1.616921
16	0xbf131f9d	-0.57470113
17	0xbebd4a31	-0.36970666
18	0x3fca7e40	1.5819778
19	0x3f0bde31	0.5463591
20	0x3fc5c505	1.545075
21	0xbef9b8dd	-0.48773852
22	0xbf9e2f4b	-1.2358183
23	0xbea5b748	-0.32366395
24	0x3f329e5e	0.697729
25	0xbf3f88c2	-0.7481805
26	0xbf0b1ec1	-0.543438
27	0x3e14bdca	0.14525524

bn_cont.weight f4 [6]
0	0x3f07cee8	0.5305009
1	0x3f34ab18	0.7057357
2	0x3f3e9d22	0.74458516
3	0x3eea0db6	0.45713586
4	0x3ec17dfa	0.37791425
5	0x3f3dd1a3	0.74148005

bn_cont.bias f4 [6]
0	0xbd01c785	-0.031684417
1	0xbc98384f	-0.018581538
2	0xbd9aae01	-0.0755272
3	0x3d274ebf	0.040846583
4	0xbd68e532	-0.056859203
5	0xbdb8df21	-0.090269335

bn_cont.running_mean f4 [6]
0	0xc293f3ea	-73.976395
1	0x42230176	40.751427
2	0xc293f2ed	-73.974464
3	0x422301ef	40.75189
4	0x3fac957d	1.348312
5	0x405400ca	3.3125482

bn_cont.running_var f4 [6]
0	0x3a84db90	0.0010136236
1	0x3a2df01c	0.00066352054
2	0x3a8a51ef	0.0010552983
3	0x3a704f54	0.0009167094
4	0x3f13a519	0.57673794
5	0x41313eae	11.077803

layers.0.weight f4 [200, 23]
0	0xbca6a91f	-0.020344315
1	0xbe3c684d	-0.18399163
2	0x3d8808b3	0.06642284
3	0xbda505b5	-0.08057729
4	0xbddb15bc	-0.10697505
5	0x3d922853	0.071365975
6	0x3e380aa6	0.17972812
7	0xbdc4b442	-0.09604694
8	0xbd220ac8	-0.039561063
9	0x3e12949f	0.14314507
10	0xbe001920	-0.12509584
11	0x3c99e343	0.018785125
12	0xbde654e5	-0.11246661
13	0x3bb28d4a	0.005448972
14	0xbd784890	-0.060616076
15	0x3db4f960	0.08836627
16	0xbe4839d3	-0.19553308
17	0xbe4dd750	-0.20101666
18	0x3e80143a	0.25015432
19	0xbe3f1a0a	-0.18662277
20	0x3e810ed1	0.25206617
21	0x3e2cc80e	0.1687319
22	0xbda1f367	-0.079077534
23	0x3bc27230	0.0059340224
24	0xba4467a8	-0.00074922526
25	0x3c1a811b	0.009430195
26	0xba488bde	-0.00076502364
27	0x3b00db24	0.0019661868
28	0x3a464366	0.0007563144
29	0xbabaf77c	-0.001426443
30	0xbb81782a	-0.0039510923
31	0xbabadbd5	-0.0014256189
32	0x3aed629c	0.0018111053
33	0x3bcf86ec	0.0063332226
34	0x3a4531ab	0.0007522355
35	0x3d143ba5	0.036189694
36	0x3bebac0f	0.007192142
37	0xbb00ff68	-0.0019683484
38	0x3b95e60e	0.004574544
39	0x3ae6315d	0.0017562319
40	0xbe01bec8	-0.12670434
41	0x3d35ccd7	0.044384804
42	0x3d3da11d	0.046296228
43	0xbdafaaeb	-0.08577522
44	0xbc8b2869	-0.016987043
45	0x3e837c8d	0.25680962
46	0xbba3ed3f	-0.005002647
47	0x3de9b52a	0.114115074
48	0x3d123a55	0.03570016
49	0xbd163e99	-0.03668079
50	0xbc4786f6	-0.012178173
51	0xbdea90f4	-0.11453429
52	0x3d9d58d3	0.076829575
53	0x3d8aa60d	0.06769953
54	0xbdab2f3a	-0.08358617
55	0x3ceb968d	0.028758312
56	0x3d722c89	0.059124503
57	0xbde0e44e	-0.10981046
58	0x3c46bb5a	0.012129629
59	0xbb7528da	-0.0037408383
60	0x3b8b1e9a	0.0042455913
61	0xbc5ca48a	-0.013466964
62	0x3ccd4580	0.025057554
63	0xbdf43583	-0.11924269
64	0x3d8ee2cd	0.069768526
65	0xbcc66087	-0.02421595
66	0x3e3d8204	0.18506628
67	0xbd1cd05c	-0.038284644
68	0xbe99e316	-0.30056065
69	0xbd2ab155	-0.041673023
70	0x3bc234f3	0.005926722
71	0xbd0f3655	-0.034963924
72	0xbc25a6b2	-0.010110544
73	0xbd2a69f5	-0.041604955
74	0x3d109bef	0.03530496
75	0xbcba6899	-0.022754954
76	0xbd1d3b25	-0.038386483
77	0x3c05f909	0.00817705
78	0x3c2ff320	0.010739118
79	0x3c460a16	0.012087366
80	0xbb2037c0	-0.0024447292
81	0xbd036ab3	-0.03208418
82	0xbc9755f7	-0.018473608
83	0xbd7eb80c	-0.06218724
84	0xbc39c2a8	-0.011337914
85	0xbd6bae84	-0.057539478
86	0x3df3cf70	0.119048
87	0x3d214f61	0.039382342
88	0x3daa3a12	0.08311857
89	0xbe7e61b1	-0.24841954
90	0xbe9ea641	-0.30986217
91	0xbe97cbe8	-0.29647756
92	0xbe1845de	-0.14870402
93	0x3dede369	0.11615641
94	0x3dea5020	0.11441064
95	0x3e8885e5	0.26664653
96	0xbca322cf	-0.019914059
97	0x3dffb9b1	0.1248659
98	0xbda692ab	-0.081334434
99	0x3de1d6fb	0.110273324
100	0xbe06d1a8	-0.13165915
101	0x3e5aa090	0.21350312
102	0x3c6d3389	0.014477619
103	0x3df6d5cd	0.12052498
104	0xbe17f4c2	-0.14839461
105	0xbe248aea	-0.16068617
106	0x3dda7f4d	0.10668812
107	0x3db0556a	0.086100414
108	0x3dc27957	0.094958
109	0xbd135a98	-0.03597507
110	0xbd8e28ba	-0.06941362
111	0x3e23e3ea	0.16004911
112	0xbe402ace	-0.18766329
113	0x3db2933f	0.08719491
114	0x3c9f86c6	0.019473445
115	0x3dea93f0	0.11453998
116	0xbc182f80	-0.009288669
117	0x3d7cd69a	0.061728097
118	0xbd9504fe	-0.07276343
119	0xbd520740	-0.051276445
120	0xbd9b440d	-0.07581339
121	0xbd2950a7	-0.04133668
122	0x3da824d3	0.08210149
123	0xbc45c8b9	-0.012071782
124	0xbd90aea1	-0.07064558
125	0x3e2b4083	0.16723828
126	0xbde5d51c	-0.11222288
127	0xbd19e3c3	-0.037570726
128	0xbe083d18	-0.13304555
129	0x3e1b4cb6	0.15165982
130	0xbe2bdfc8	-0.16784585
131	0x3c85a82e	0.016315546
132	0xbe6fc74c	-0.2341587
133	0x3e75bcdf	0.2399783
134	0xbdf2a8ea	-0.11848624
135	0x3ccd91e0	0.025093973
136	0x3dce5fca	0.10076864
137	0xbd281dde	-0.04104411
138	0xbdf009f0	-0.117206454
139	0xbbb9d134	-0.005670691
140	0xbd18ff43	-0.03735281
141	0x3d861792	0.065474644
142	0x3e03a8bc	0.12857336
143	0xbd8cea8c	-0.06880674
144	0xbdb73314	-0.08945289
145	0x3cfb45fe	0.030673023
146	0xbd4e1ef1	-0.050322477
147	0xbcf078ee	-0.029354539
148	0x3e23bd01	0.15990068
149	0x3d986c51	0.07442535
150	0xbe967d68	-0.29392552
151	0xbd8ffffe	-0.070312485
152	0x3dac6753	0.08418145
153	0xbaf97f7b	-0.0019035185
154	0xbd03ff65	-0.032225985
155	0x3e340e92	0.17583683
156	0x3d31498e	0.043283038
157	0x3ea37eae	0.31932586
158	0xbdcc66b7	-0.09980529
159	0x3d5addc6	0.053434156
160	0x3e637cb9	0.22215547
161	0x3ce9df12	0.028548751
162	0xbd3e5a0b	-0.04647259
163	0x3dcae4d1	0.099069245
164	0xbcffa87c	-0.03120827
165	0x3e43c718	0.19118917
166	0x3db9b7ac	0.09068236
167	0xbe00f81b	-0.12594645
168	0x3b94ecb5	0.0045448192
169	0x3dbf6780	0.09345913
170	0xbd0f8610	-0.03503996
171	0xbe13abb9	-0.14420976
172	0x3dc14acc	0.094380945
173	0xbdeb8012	-0.11499037
174	0xbcaa8098	-0.020813271
175	0xbdaa051b	-0.08301755
176	0xbcb7b9b6	-0.022427421
177	0xbdb9829f	-0.09058117
178	0xbccda721	-0.025104107
179	0x3e75513e	0.23956773
180	0xbcdcdf38	-0.026961908
181	0xbe53b02f	-0.20672677
182	0x3d771a8e	0.06032806
183	0xbe3ded94	-0.1854766
184	0xbcca7261	-0.024712743
185	0xbc739f53	-0.014869529
186	0x3d548659	0.051885936
187	0xbd92d4d3	-0.07169499
188	0xbd8a4237	-0.06750911
189	0x3a35607b	0.0006918979
190	0x3d31c79b	0.04340325
191	0xbbef135d	-0.0072960095
192	0xbd2d55a1	-0.04231799
193	0x3d7c1349	0.06154183
194	0x3d0c320b	0.034227412
195	0x3c7c93e1	0.015416116
196	0xbce191cf	-0.027535347
197	0xbbe06aaf	-0.006848655
198	0xbd8877ed	-0.06663499
199	0x3c4bd916	0.012441894
200	0x3aba7b2b	0.0014227381
201	0x3e3bb295	0.18329842
202	0xbd1c8898	-0.038216203
203	0x3e3b1eaf	0.18273424
204	0xbe37ffbe	-0.17968652
205	0x3dd8389f	0.105576746
206	0x3e92ad3a	0.28647786
207	0x3dface73	0.12246408
208	0x3e18426d	0.1486909
209	0xbddee120	-0.10882783
210	0xbdeb4863	-0.11488416
211	0x3cc95de5	0.024580905
212	0x3e191821	0.1495061
213	0x3e70f717	0.23531757
214	0xbe32f693	-0.17476873
215	0xbdec7a6a	-0.11546786
216	0x3dc9b044	0.09848073
217	0xbcf06d9f	-0.029349146
218	0x3e3429b8	0.1759404
219	0xbd19656c	-0.03745024
220	0x3b58974a	0.003304916
221	0x3dbe7b33	0.09300842
222	0x3dca0c78	0.098656595
223	0x3d84841d	0.06470511
224	0x3e0d8bd1	0.13822867
225	0xbdaa05c6	-0.083018824
226	0x3e3a7c32	0.18211439
227	0xbe92629a	-0.28590852
228	0x3e55819d	0.20850225
229	0xbcefb98e	-0.029263284
230	0x3c1a2efd	0.009410617
231	0x3c497bcf	0.012297585
232	0x3cf83727	0.030299736
233	0xbd0ca6d3	-0.034338783
234	0x3c3fb8e2	0.011701794
235	0xbb494f18	-0.003071731
236	0xbaa99657	-0.0012938482
237	0x3b54c138	0.00324638
238	0x3c115c0a	0.0088720415
239	0xbc4f05b6	-0.012635639
240	0x3c9d300f	0.019187955
241	0xbc8edac8	-0.017438307
242	0x3e4fcf49	0.20293917
243	0x3ba61585	0.0050684833
244	0x3a6814a9	0.0008853176
245	0x3b93d322	0.004511253
246	0x3c7332ed	0.014843685
247	0x3d53af00	0.051680565
248	0x3d8d0e8b	0.068875395
249	0x3ca6d549	0.020365374
250	0xbb8366de	-0.0040100655
251	0x3e06fd47	0.13182555
252	0xbeb66f45	-0.35631767
253	0xbcbd30e1	-0.023094596
254	0xbc8c0e84	-0.017096765
255	0xbc992fa4	-0.018699475

layers.0.bias f4 [200]
0	0xbe167395	-0.14692529
1	0x3e161298	0.1465553
2	0x3d577c15	0.05260857
3	0x3e665be7	0.22495995
4	0xbc931133	-0.017952537
5	0xbc5e040d	-0.0135507705
6	0x3d24aa40	0.040201426
7	0xbc6eb3bb	-0.014569218
8	0xbe113f62	-0.14184335
9	0x3cc616c3	0.024180776
10	0x3d4fbb24	0.05071558
11	0x3e9bf80e	0.30462688
12	0x3ca93519	0.020655202
13	0x3e14bf19	0.14526023
14	0x3d03a553	0.032140087
15	0x3d9104e4	0.07081011
16	0x3e188d28	0.14897597
17	0xbdce68e4	-0.100786
18	0xbd291ad8	-0.041285366
19	0x3e85c113	0.26123866
20	0x3e6a6ad6	0.22892317
21	0xbcc80b86	-0.024419557
22	0xbd554514	-0.05206783
23	0x3e5fb0f9	0.21844853
24	0xbd433988	-0.047662288
25	0x3e424238	0.18970573
26	0x3dbf4a17	0.093403034
27	0x3de57cb9	0.112054296
28	0x3d64903b	0.05580161
29	0x3eb44673	0.35209998
30	0xbd9546b5	-0.07288877
31	0xbc9b5355	-0.018960634
32	0x3e605ebe	0.21911141
33	0xbcc31ffb	-0.02381896
34	0x3c1b27c8	0.009469934
35	0x3e18016f	0.14844297
36	0xbd985cd8	-0.074395835
37	0x3d5e38b5	0.0542533
38	0x3e99adbe	0.30015367
39	0x3e862ad2	0.26204544
40	0xbd4092bb	-0.047014933
41	0xbd9827ad	-0.074294426
42	0x3e9e800f	0.30957076
43	0x3e913765	0.28362575
44	0x3e01d854	0.12680179
45	0xbde6b3a7	-0.11264735
46	0xbd52b1a1	-0.05143893
47	0x3ccc84cf	0.024965672
48	0x3e03ac10	0.12858605
49	0xbc85f084	-0.016350038
50	0xbece0aaf	-0.40242526
51	0xbc6cb7a6	-0.014448082
52	0x3e0f93c6	0.14021215
53	0x3e0fdbae	0.14048645
54	0x3cac9a1d	0.02106958
55	0xbd8b96e6	-0.06815891
56	0xbe3f49a4	-0.18680435
57	0x3e3e76cd	0.18600006
58	0xbc313052	-0.010814743
59	0xbe8c0df4	-0.27354395
60	0x3d18ba1d	0.037286866
61	0xbdbacd80	-0.09121227
62	0x3e88c4c1	0.2671261
63	0x3d84b2e4	0.06479433
64	0x3e4de769	0.20107807
65	0xbebc7edf	-0.36815545
66	0x3c43a15f	0.011940329
67	0xbe008aab	-0.12552898
68	0xbdfe9e3d	-0.12432525
69	0x3e8a9f9a	0.2707489
70	0x3e6c017e	0.23047444
71	0x3d3ccbaf	0.046092685
72	0x3dd14fe0	0.10220313
73	0x3e82b029	0.25525025
74	0x3ea43625	0.3207256
75	0x3de33dd1	0.11095775
76	0xbe21f7ec	-0.15817231
77	0x3d5106d4	0.051031902
78	0x3e911213	0.28334102
79	0xbe78cdb2	-0.24297217
80	0xbd8eea22	-0.06978251
81	0xbda53b79	-0.08067984
82	0xbdb6bf5a	-0.08923216
83	0x3ea44e6e	0.32091087
84	0x3d5f3ef0	0.05450338
85	0xbe84c131	-0.25928643
86	0x3e9aac61	0.3020964
87	0xbd900b0c	-0.07033357
88	0x3cde26b5	0.027118066
89	0xbd9894b3	-0.07450237
90	0x3e3cdf42	0.18444541
91	0xbc0b1cba	-0.008490736
92	0x3dc84977	0.09779637
93	0xbddeb20b	-0.10873803
94	0x3e705f0b	0.23473756
95	0x3e206589	0.15663733
96	0x3ec5d06b	0.38635573
97	0x3e090a8a	0.13382927
98	0xbd7fc0c7	-0.062439706
99	0xbe4d7d5e	-0.20067355
100	0x3e785d0c	0.24254245
101	0x3dd1cf56	0.10244624
102	0xbe5ab1ab	-0.21356837
103	0x3c973c99	0.018461512
104	0x3e3059d2	0.17221764
105	0x3e706923	0.23477606
106	0xbcca0463	-0.024660295
107	0x3d6c31a2	0.05766452
108	0x3e4e661a	0.20156136
109	0x3cd5267f	0.026019333
110	0x3e1889a4	0.14896256
111	0xbe0120b8	-0.12610137
112	0x3c6f1034	0.0145912655
113	0xbd4ca5a9	-0.049962673
114	0x3e81859f	0.25297257
115	0x3babba38	0.005240705
116	0xbda97acc	-0.08275375
117	0x3dc61197	0.09671324
118	0xbd89a99c	-0.067218035
119	0xbdab3ab5	-0.08360807
120	0x3ccaed7d	0.024771446
121	0x3dc6f2a6	0.0971425
122	0x3d2f2522	0.042760022
123	0x3e456a7a	0.19278899
124	0x3e37dc2d	0.17955084
125	0x3ea0a948	0.3137915
126	0x3e69ec6a	0.22844091
127	0x3ce67faa	0.028137047
128	0xbe05b487	-0.13057147
129	0x3ed5a9ae	0.41731018
130	0x3ea042b2	0.31300884
131	0xbe085c41	-0.13316442
132	0x3e605596	0.21907648
133	0x3d4a4688	0.04938367
134	0x3e86e6d3	0.2634798
135	0xbbac58ad	-0.0052595944
136	0x3e4f6cec	0.20256394
137	0x3e273075	0.16327079
138	0x3d1f7d0f	0.038937625
139	0x3e1c17e3	0.15243487
140	0x3e644040	0.22290134
141	0x3e47a64b	0.1949703
142	0x3cc11b84	0.02357269
143	0x3c8492c9	0.016183274
144	0xbc7bb422	-0.015362771
145	0xbdd8f3ac	-0.10593352
146	0x3c8eacdd	0.017416412
147	0xbbb18153	-0.005417028
148	0x3c83fb7f	0.016111134
149	0x3e657b76	0.22410378
150	0x3dfadc52	0.12249054
151	0x3d86f639	0.06589932
152	0x3e27047a	0.16310301
153	0x3e6e20e2	0.23254731
154	0x3e6b5793	0.22982626
155	0xbcffaee1	-0.031211318
156	0xbce690b9	-0.028145181
157	0x3dbe316a	0.09286769
158	0xbd501a85	-0.05080654
159	0xbd5274c0	-0.051380873
160	0x3dfff37a	0.12497611
161	0x3e324dc9	0.17412485
162	0x3de87e74	0.11352244
163	0xbd6ebf28	-0.05828777
164	0xbe0b7ad5	-0.13621075
165	0x3d5db3e8	0.05412665
166	0x3e4a3e7f	0.19750403
167	0xbe397c1b	-0.18113749
168	0x3da5f9ab	0.08104261
169	0xbe465cfc	-0.19371408
170	0xbe43602f	-0.1907966
171	0x3dce1230	0.10062063
172	0xbe4a2f34	-0.19744569
173	0xbdccc65d	-0.09998772
174	0x3e9d7680	0.3075447
175	0xbd4e45dd	-0.050359596
176	0x3e91b480	0.28458023
177	0x3e454249	0.19263567
178	0x3d9b05f5	0.075694956
179	0xbcd1895a	-0.02557819
180	0x3d9c9d0d	0.076471426
181	0x3dfcbc0c	0.123405546
182	0x3d0b8383	0.034060966
183	0x3deec445	0.11658529
184	0xbe1915b3	-0.14949684
185	0x3e40ff12	0.18847302
186	0xbcecd874	-0.028911807
187	0xbe16a9c0	-0.14713192
188	0x3e5aa506	0.21352014
189	0x3c5bcf2b	0.013416092
190	0xbda328a2	-0.079667345
191	0x3c8049d8	0.015660211
192	0x3e08bf0c	0.13354129
193	0x3e527e7f	0.20556067
194	0xbd7b7169	-0.061387453
195	0x3e84669b	0.25859532
196	0xbe83291b	-0.25617298
197	0x3e32aea7	0.17449437
198	0x3e2ed08f	0.17071746
199	0x3dd9d473	0.106362246

layers.2.weight f4 [200]
0	0x3d8a829f	0.06763195
1	0x3f29b97e	0.66298664
2	0x3f388e91	0.7209254
3	0x3e606037	0.21911703
4	0x3ed8282e	0.42218155
5	0x3f0c38ba	0.5477406
6	0x3ddb87ba	0.10719247
7	0x3f392bc8	0.7233243
8	0x3e8ecf83	0.27892694
9	0x3ec10254	0.3769709
10	0x3dfdafc3	0.123870395
11	0x3e8b15cf	0.27165076
12	0x3cf02a59	0.029317068
13	0x3f03712d	0.5134457
14	0x3f51db55	0.819753
15	0x3f4cb423	0.79962367
16	0x3f071537	0.52766746
17	0x3e79ad80	0.24382591
18	0x3f23188f	0.6370935
19	0x3e50b077	0.20379816
20	0x3f2ff4dc	0.68733
21	0x3f2c9ba3	0.6742498
22	0x3f6d959a	0.928064
23	0x3f61fde1	0.88278013
24	0x3e286b95	0.1644729
25	0x3e8254a9	0.25455216
26	0x3f32c2e4	0.6982863
27	0x3ec3db57	0.3825328
28	0x3f254e4f	0.64572614
29	0x3eeb7683	0.45988855
30	0x3da6f2c1	0.081517704
31	0x3f404651	0.75107294
32	0x3e1d6d57	0.15373741
33	0x3f4495a1	0.76790816
34	0x3f43795d	0.7635706
35	0x3f604b5f	0.8761501
36	0x3edd5382	0.43227774
37	0x3e44207e	0.1915302
38	0x3e854f3a	0.26037008
39	0x3f2712a7	0.65262836
40	0x3e7e6ca8	0.24846137
41	0x3f04427f	0.51663965
42	0x3f530807	0.82434124
43	0x3e2137d0	0.15743947
44	0x3ee263e6	0.4421684
45	0x3f20e9b3	0.62856597
46	0x3eef06d6	0.46684903
47	0x3f6cabca	0.9244963
48	0x3f23f23d	0.640415
49	0x3f10fbd4	0.5663426
50	0x3e275703	0.16341786
51	0x3f6d3076	0.9265207
52	0x3f2f3e56	0.6845449
53	0x3ee9d9f7	0.45674106
54	0x3d859601	0.065227516
55	0x3f6c6631	0.9234343
56	0x3f2c9e09	0.6742864
57	0x3f61b558	0.88167334
58	0x3f6f5fd4	0.935056
59	0x3f395013	0.7238781
60	0x3f366644	0.71249795
61	0x3f3d074c	0.7383926
62	0x3daa14d8	0.08304757
63	0x3ebab514	0.36466277
64	0x3eeb8c52	0.46005493
65	0x3d430521	0.047612313
66	0x3eb7cb39	0.35897234
67	0x3f264a91	0.6495753
68	0x3f32f89d	0.69910604
69	0x3e8b643c	0.2722491
70	0x3f0f43d1	0.55962855
71	0x3f28dbf5	0.6596063
72	0x3f13fbb6	0.57805955
73	0x3f2325f3	0.6372978
74	0x3e4c5397	0.19953762
75	0x3ee30c08	0.44345117
76	0x3e072462	0.13197473
77	0x3eb1b8f9	0.34711435
78	0x3f0c0ef3	0.5471031
79	0x3ec365c6	0.38163584
80	0x3f5381d7	0.82619995
81	0x3e606299	0.21912612
82	0x3f546ec8	0.8298154
83	0x3e1740f0	0.14770865
84	0x3e93cab5	0.2886559
85	0x3e93d342	0.28872114
86	0x3dfae0d7	0.12249916
87	0x3e96ff6b	0.29491743
88	0x3ed1dae7	0.40987322
89	0x3f180844	0.5938761
90	0x3f21f741	0.63267905
91	0x3f0267aa	0.5093943
92	0xbc78d9f4	-0.015188683
93	0x3e4351d5	0.19074185
94	0x3f6a5da5	0.9154914
95	0x3eb2bc1c	0.3490914
96	0x3eb39ce5	0.3508064
97	0x3e640eab	0.2227122
98	0x3f30fd25	0.6913627
99	0x3e53ccc2	0.20683578
100	0x3f395a9d	0.7240389
101	0x3ed04b74	0.40682566
102	0x3f0f95fb	0.5608823
103	0x3e90341a	0.2816475
104	0x3d4a20e6	0.04934778
105	0x3f4c68ac	0.79847217
106	0x3e6fed67	0.23430406
107	0x3f437bb7	0.7636065
108	0x3f032475	0.51227504
109	0x3f64b590	0.8933954
110	0x3f6b55a6	0.91927564
111	0x3e56c4f5	0.2097357
112	0x3ef83a3e	0.48481935
113	0x3e9f02fc	0.31056964
114	0x3e0c70fe	0.13714978
115	0x3f1eb3d5	0.6199315
116	0x3efcee72	0.4940067
117	0x3f2b04f3	0.66804427
118	0x3f22bfdb	0.63574
119	0x3ec80e91	0.39073613
120	0x3f472b93	0.77800864
121	0x3ed24286	0.41066378
122	0x3e49a754	0.19692737
123	0x3f1becf5	0.6090844
124	0x3f35c90a	0.71009886
125	0x3f0176ea	0.50572073
126	0x3ea75a5e	0.32686132
127	0x3f278771	0.6544104
128	0xbaf1bda3	-0.0018443357
129	0x3e7dc721	0.24782993
130	0x3dfd77b3	0.123763464
131	0x3eb1d838	0.34735274
132	0x3e4365ab	0.19081752
133	0x3f3bdd86	0.7338489
134	0x3f455e54	0.7709706
135	0x3eed06c1	0.46294215
136	0x3e3fb5b8	0.18721664
137	0x3edc6a7d	0.43049994
138	0x3f660138	0.8984561
139	0x3dee6a04	0.116413146
140	0x3f7507db	0.9571511
141	0x3e918b8b	0.28426775
142	0x3f0047ea	0.5010973
143	0x3e5c9b10	0.21543527
144	0x3f0e52e7	0.5559525
145	0x3f539a6a	0.8265749
146	0x3f1d12ac	0.61356616
147	0x3e5b5d0e	0.21422216
148	0x3f725227	0.94656605
149	0x3ea6d711	0.32585958
150	0x3ef3f4a1	0.47647575
151	0x3f100ba1	0.56267744
152	0x3f67ecd7	0.90595764
153	0x3f4dd3fd	0.80401593
154	0x3f0517f1	0.51989657
155	0x3e061e09	0.13097395
156	0x3f6cb25c	0.92459655
157	0x3ee37af1	0.44429734
158	0x3e65125e	0.22370288
159	0x3f0bef9f	0.5466251
160	0x3f00837f	0.5020065
161	0x3ef7c33d	0.48391142
162	0x3ec0d3c1	0.37661555
163	0x3f602bb7	0.87566704
164	0x3ecb7149	0.39734867
165	0x3f1315b8	0.57455015
166	0x3ea994e7	0.33121416
167	0x3ee926d1	0.45537427
168	0x3f1bb47e	0.60822284
169	0x3e2ae4dd	0.16688867
170	0x3f4d6e4f	0.8024644
171	0x3f296cb2	0.6618148
172	0x3ef10ede	0.47081655
173	0x3f591feb	0.8481433
174	0x3deb4c71	0.114891894
175	0x3e2952f8	0.16535556
176	0x3e03f6c2	0.128871
177	0x3e62b0d6	0.2213777
178	0x3e169318	0.1470455
179	0x3f3d3220	0.7390461
180	0x3f408437	0.75201744
181	0x3ea29ef5	0.317619
182	0x3e3531d0	0.17694783
183	0x3f5c9877	0.8617014
184	0x3ee49d22	0.44651133
185	0x3ef7fb7a	0.4843405
186	0x3ec0372f	0.37542102
187	0x3f4fcc6e	0.8117131
188	0x3f3d0fe7	0.7385239
189	0x3eae7637	0.34074566
190	0x3f27f031	0.6560088
191	0x3eab11df	0.33412072
192	0x3ea00068	0.3125031
193	0x3f7cf814	0.9881604
194	0x3f1126a8	0.5669961
195	0x3f0b00fc	0.5429838
196	0x3f13c135	0.57716686
197	0x3f55ee42	0.8356668
198	0x3ec1827a	0.37794858
199	0x3f18451a	0.5948044

layers.2.bias f4 [200]
0	0x3de1bff1	0.11022938
1	0xbd731afb	-0.059351902
2	0x3e020f6c	0.12701195
3	0x3de7b5fc	0.11314008
4	0xbdeb6536	-0.11493914
5	0x3dc45a9c	0.09587595
6	0xbd52ff91	-0.05151326
7	0x3ddfb563	0.10923269
8	0xbd578884	-0.052620426
9	0xbde7f87a	-0.1132669
10	0x3d8be2a4	0.06830338
11	0x3dd4f117	0.10397547
12	0x3d7f6200	0.06234932
13	0x3e069689	0.13143362
14	0xbdb61ae8	-0.08891851
15	0x3e091139	0.13385476
16	0xbdf11485	-0.11771492
17	0x3de54f9a	0.111968234
18	0x3e0069d5	0.12540372
19	0x3e08b287	0.13349353
20	0x3de117d5	0.10990874
21	0x3defeb21	0.11714769
22	0xbd83e39e	-0.06439899
23	0xbde99ba8	-0.11406642
24	0x3d55a363	0.05215777
25	0x3de55414	0.11197677
26	0xbdb581a2	-0.08862616
27	0x3e00c5c7	0.12575446
28	0xbde99fc8	-0.11407429
29	0x3e0fc867	0.14041291
30	0xbd404c97	-0.04694804
31	0xbdd22dc3	-0.102626346
32	0xbd1aa36a	-0.0377535
33	0xbddfcf09	-0.10928161
34	0x3dcb2787	0.099196486
35	0xbe041604	-0.12899023
36	0x3df49c35	0.119438566
37	0xbdccc638	-0.09998745
38	0x3def03f4	0.11670676
39	0x3e062b7e	0.13102528
40	0xbd2b7049	-0.04185513
41	0xbd91b915	-0.0711538
42	0xbde5bf9a	-0.11218186
43	0x3de3142d	0.110878326
44	0xbda964f9	-0.08271212
45	0xbdd0a498	-0.10187644
46	0xbdced2fe	-0.10098837
47	0xbde052f3	-0.10953321
48	0x3dff94e6	0.12479572
49	0x3cce924e	0.025216248
50	0xbd594e79	-0.053053353
51	0xbde0c7a6	-0.1097558
52	0x3e185903	0.14877705
53	0x3e033fde	0.12817332
54	0xbd5d5730	-0.054038227
55	0xbde5d5b3	-0.112224005
56	0x3dfa9484	0.12235358
57	0xbdc4479f	-0.09583973
58	0xbdd8e714	-0.1059095
59	0x3d690f40	0.05689931
60	0x3df8c8e9	0.121476956
61	0x3dcd2ea9	0.10018665
62	0xbde947ec	-0.11390671
63	0x3e004c49	0.125291
64	0xbdf3de06	-0.11907582
65	0xbdd6f21f	-0.104954
66	0xbcb26e11	-0.021781
67	0xbdd3c5cd	-0.10340462
68	0x3dbd87fa	0.09254451
69	0x3dca18b1	0.09867991
70	0x3d9bddc5	0.076106586
71	0x3e0c4f63	0.13702159
72	0xbdde2c8f	-0.108483426
73	0xbdd32f47	-0.10311752
74	0xbc9c6468	-0.019090846
75	0x3e01666e	0.1263673
76	0xbd931f5d	-0.071837164
77	0x3dece4fd	0.115671135
78	0x3db5dd14	0.08880058
79	0xbd2ed734	-0.042685702
80	0xbdaaadd9	-0.0833394
81	0xbd4ac30a	-0.04950241
82	0xbd2b0b41	-0.04175878
83	0xbd914b98	-0.070944965
84	0x3dffb177	0.124850206
85	0xbd36c147	-0.044617917
86	0xbd2f1d2c	-0.04275243
87	0xbe0333be	-0.12812707
88	0x3aac56c4	0.0013148417
89	0xbda37e21	-0.079830416
90	0xbd297aff	-0.041377064
91	0xbdc355e5	-0.095378675
92	0xbd764b02	-0.060130127
93	0xbc3be690	-0.011468545
94	0x3db6f938	0.089342535
95	0x3c8501fd	0.0162363
96	0x3dfa7f72	0.122313395
97	0xbdec635a	-0.11542387
98	0xbdd65931	-0.10466231
99	0xbcbe965d	-0.023265058
100	0xbd5fb07f	-0.05461168
101	0xbdfbb39b	-0.122901164
102	0xbdccf396	-0.10007398
103	0x3e04e246	0.12976941
104	0x3d7fb8db	0.06243215
105	0x3d83957c	0.06424996
106	0xbd03cbee	-0.032176904
107	0x3dca6e23	0.09884288
108	0x3df2651b	0.118356906
109	0xbd9ce03f	-0.07659959
110	0xbd8ac6cf	-0.06776201
111	0xbd56c457	-0.052433338
112	0x3b0ceeb7	0.002150459
113	0x3e0116c8	0.12606347
114	0x3dc408eb	0.095720135
115	0xbddd4163	-0.10803487
116	0x3df6cd84	0.12050918
117	0xbd900af3	-0.070333384
118	0xbdd93a2e	-0.106068
119	0x3df29dcc	0.118465036
120	0xbd990ff0	-0.07473743
121	0x3df4b71d	0.119489886
122	0xbd204cbb	-0.039135676
123	0x3e124ab1	0.14286305
124	0xbddb6b03	-0.1071377
125	0x3deac0b3	0.11462536
126	0xbdd6c057	-0.10485905
127	0xbdedbf11	-0.11608709
128	0xbd5a078d	-0.053229857
129	0x3db2bfb1	0.087279685
130	0xbd229439	-0.039692137
131	0xbd8000ea	-0.06250174
132	0xbd8f7485	-0.07004646
133	0xbdc1c50d	-0.094614126
134	0xbdf49a34	-0.119434744
135	0x3e057c2b	0.13035648
136	0xbd3f1007	-0.046646144
137	0xbde7067c	-0.11280534
138	0x3e09d5c2	0.13460448
139	0xbd4fcb94	-0.050731257
140	0x3de926b3	0.113843344
141	0xbd80713e	-0.06271599
142	0x3df343ca	0.11878164
143	0xbd9826ea	-0.07429297
144	0xbde34cc3	-0.110986255
145	0xbde7afc6	-0.11312823
146	0x3e097dc0	0.13426876
147	0xbdb2c18e	-0.08728324
148	0x3dd590de	0.10428022
149	0xbdff1be8	-0.124564946
150	0xbdddb745	-0.108259715
151	0xbdea8146	-0.11450438
152	0xbd9fd1b1	-0.07803667
153	0xbe00792f	-0.12546228
154	0x3e042532	0.12904814
155	0x3d154363	0.036441218
156	0x3dc8fe12	0.09814085
157	0xbda4fafb	-0.08055683
158	0xbdbe711d	-0.092989184
159	0xbdf9e686	-0.12202172
160	0xbdc79cc4	-0.097466975
161	0x3e193265	0.1496063
162	0x3dd566d0	0.104200006
163	0x3dbabc06	0.09117894
164	0xbdc03a42	-0.09386112
165	0xbd7dc667	-0.06195679
166	0xbd5083b8	-0.050906867
167	0xbd894c9f	-0.067040674
168	0x3dc4729d	0.09592173
169	0xbd84cf45	-0.06484846
170	0xbda014d5	-0.078164734
171	0xbda82da5	-0.08211831
172	0xbdeda33c	-0.116034
173	0x3df00d4a	0.11721285
174	0xbd560c23	-0.05225767
175	0x3e0209a8	0.12698996
176	0xbda49fdf	-0.080383055
177	0xbcc76651	-0.02434078
178	0x3d907865	0.070542134
179	0x3ddf2873	0.10896387
180	0xbde08f41	-0.109648235
181	0x3e004831	0.12527539
182	0xbd9162b4	-0.07098904
183	0xbde501bf	-0.11181974
184	0x3dec2c71	0.11531914
185	0xbdd1ab3c	-0.102377385
186	0x3ddfc818	0.10926837
187	0xbdf1ec42	-0.11812641
188	0x3e11cd22	0.14238408
189	0x3d1aa853	0.037758183
190	0x3de3b38d	0.11118231
191	0x3dd42e67	0.10360413
192	0x3df32d97	0.1187393
193	0xbdd56f53	-0.10421624
194	0xbdbdafa8	-0.092620194
195	0x3e0b8f9e	0.13629004
196	0xbde596ae	-0.112103805
197	0xbde07f2a	-0.109617546
198	0xbc79a6f9	-0.015237563
199	0x3da823df	0.08209967

layers.2.running_mean f4 [200]
0	0x3e903816	0.2816779
1	0x3e031a70	0.12803054
2	0x3e5debc2	0.21671966
3	0x3ea0b989	0.31391552
4	0x3e0acdcd	0.1355507
5	0x3e0e6a3b	0.13907711
6	0x3e119e1c	0.1422047
7	0x3e46a665	0.19399412
8	0x3dc53b7a	0.09630485
9	0x3e328f1d	0.17437406
10	0x3e1996b6	0.14998898
11	0x3ebdc84a	0.3706687
12	0x3e1c9147	0.15289794
13	0x3e3dc23b	0.18531124
14	0x3e0f303c	0.13983244
15	0x3e1726c9	0.14760889
16	0x3e5ef5f6	0.21773514
17	0x3d8b59a1	0.06804205
18	0x3e806408	0.25076318
19	0x3e95372d	0.29143658
20	0x3ec2cd12	0.3804708
21	0x3e4ef7ad	0.20211668
22	0x3e2069d4	0.1566537
23	0x3e4d2a47	0.20035659
24	0x3db8fa13	0.09032073
25	0x3ed4123b	0.4142016
26	0x3eb1915d	0.34681216
27	0x3e706024	0.23474175
28	0x3e9a7cbb	0.30173287
29	0x3ee47363	0.44619283
30	0x3e21dec5	0.15807636
31	0x3dcdaccf	0.10042726
32	0x3e549d65	0.20763166
33	0x3e314355	0.17310841
34	0x3e16d071	0.14727952
35	0x3e6a4312	0.22877148
36	0x3e170a45	0.14750011
37	0x3e89dbac	0.2692541
38	0x3eb884cb	0.36038813
39	0x3ea8a6a8	0.3293965
40	0x3d503c70	0.050838888
41	0x3d8dba0b	0.069202505
42	0x3eb7ea97	0.35921165
43	0x3efcb638	0.49357772
44	0x3dfa390c	0.12217912
45	0x3e1a38f4	0.15060788
46	0x3de5b347	0.11215835
47	0x3dfd0c05	0.12355808
48	0x3e57956a	0.2105309
49	0x3d38118c	0.04493861
50	0x3c8a6cfb	0.016897669
51	0x3d98fe8d	0.07470427
52	0x3e4ca72a	0.19985643
53	0x3ed57990	0.41694307
54	0x3e003642	0.12520698
55	0x3d7e1d84	0.062039867
56	0x3daeeb11	0.08540929
57	0x3eea5f69	0.45775917
58	0x3e965809	0.2936404
59	0x3e075ecd	0.13219757
60	0x3de8dca4	0.11370209
61	0x3e2f2d8a	0.17107216
62	0x3eead0c6	0.45862406
63	0x3e3045d9	0.17214145
64	0x3f008000	0.5019531
65	0x3dc19b2f	0.09453427
66	0x3d5d4a88	0.054026157
67	0x3debe766	0.11518745
68	0x3e314161	0.17310096
69	0x3ebb586f	0.36590907
70	0x3e951d59	0.29123953
71	0x3daa068b	0.08302029
72	0x3e6573f5	0.22407515
73	0x3e83aba2	0.25716883
74	0x3e88ae4a	0.26695472
75	0x3ed066da	0.4070347
76	0x3d61ea28	0.05515495
77	0x3e237e85	0.15966232
78	0x3efae86b	0.49005446
79	0x3ce90e5a	0.028449226
80	0x3e005e24	0.12535912
81	0x3d9abf0e	0.07555972
82	0x3d1a0344	0.03760077
83	0x3e92edd6	0.2869708
84	0x3e86a978	0.2630117
85	0x3d1a0516	0.037602507
86	0x3e5dd2a8	0.2166239
87	0x3da854ea	0.08219321
88	0x3d9b9a99	0.075978465
89	0x3e77a794	0.2418502
90	0x3e2e2de8	0.170097
91	0x3dae6303	0.08514979
92	0x3f13a6a9	0.5767618
93	0x3d001769	0.031272326
94	0x3ee9b68c	0.45647085
95	0x3e053709	0.13009275
96	0x3eec6df2	0.46177632
97	0x3e648a6e	0.22318432
98	0x3e1c1a0f	0.15244316
99	0x3c016d29	0.007899561
100	0x3e688ceb	0.22710006
101	0x3e2809a8	0.16409934
102	0x3c8404c9	0.016115563
103	0x3df059aa	0.11735852
104	0x3e906599	0.28202513
105	0x3ec79f58	0.38988757
106	0x3da0d561	0.07853199
107	0x3e48fb64	0.19627148
108	0x3e94f683	0.29094324
109	0x3ec69ca6	0.38791388
110	0x3e0bc347	0.13648711
111	0x3d802f9d	0.062590815
112	0x3d75b8f8	0.059990853
113	0x3e1de1af	0.15418123
114	0x3ea074d5	0.31339136
115	0x3e118095	0.14209206
116	0x3e3a145c	0.18171829
117	0x3e107d1b	0.14110224
118	0x3d8a51f2	0.06753911
119	0x3dcdde58	0.10052174
120	0x3e87e321	0.26540473
121	0x3e9c4498	0.30521083
122	0x3e08cc37	0.13359152
123	0x3eb1bbf2	0.34713703
124	0x3e845970	0.25849485
125	0x3eeec046	0.46631068
126	0x3e6884e8	0.2270695
127	0x3dfb66b6	0.1227545
128	0x3e7f4e89	0.24932303
129	0x3ef54ad8	0.47908664
130	0x3e722d41	0.23650075
131	0x3d895e26	0.067074105
132	0x3e404ea9	0.18780006
133	0x3e558fff	0.20855711
134	0x3ec6a510	0.38797808
135	0x3deb9c68	0.115044415
136	0x3e32a9d4	0.17447597
137	0x3e6a5e44	0.22887522
138	0x3e5a9cfc	0.21348947
139	0x3e1f5367	0.15559159
140	0x3e7fa79a	0.24966279
141	0x3e374824	0.17898613
142	0x3deb2837	0.1148228
143	0x3d57e915	0.05271252
144	0x3d8c0941	0.068377025
145	0x3d98f637	0.07468837
146	0x3dfa71c3	0.122287296
147	0x3dbcec3b	0.09224745
148	0x3e6db05f	0.23211811
149	0x3e6e7ac3	0.23289017
150	0x3e159cc6	0.14610586
151	0x3e485410	0.19563317
152	0x3e38ce5c	0.1804747
153	0x3ebaa7d8	0.3645618
154	0x3edb8c5f	0.42880532
155	0x3de3131f	0.110876314
156	0x3e3f91cb	0.1870796
157	0x3e35ec2e	0.17765877
158	0x3dc198a7	0.09452944
159	0x3de153f8	0.11002344
160	0x3e860ae7	0.26180193
161	0x3e85e17e	0.261486
162	0x3ec426fc	0.38310993
163	0x3e92be36	0.28660744
164	0x3d55ad8d	0.052167464
165	0x3e8d8878	0.2764318
166	0x3e32c9d0	0.17459798
167	0x3d62ec4d	0.055401135
168	0x3e5beedd	0.21477838
169	0x3d7f6ff0	0.06236261
170	0x3d7180b0	0.058960617
171	0x3e9dc586	0.3081476
172	0x3d8d9b5a	0.069143966
173	0x3e28e5b4	0.16493875
174	0x3e854cc6	0.26035136
175	0x3e66c007	0.2253419
176	0x3e8ba613	0.27275142
177	0x3e3747b8	0.17898452
178	0x3e1ca6b8	0.15297973
179	0x3e1b532f	0.15168451
180	0x3e065100	0.13116837
181	0x3e2e9772	0.1704996
182	0x3dabc42a	0.08387025
183	0x3e2486a0	0.1606698
184	0x3dda63cc	0.10663566
185	0x3e1e94ec	0.15486497
186	0x3e5dfa5c	0.21677536
187	0x3de9ca0e	0.11415492
188	0x3e3652ee	0.17805073
189	0x3d74d133	0.05976982
190	0x3e2e08ee	0.16995594
191	0x3def6b5e	0.116904005
192	0x3e42a9a4	0.19010025
193	0x3e5ba121	0.21448185
194	0x3d4cd2e0	0.050005794
195	0x3e9ce70c	0.30645025
196	0x3c6c6626	0.014428651
197	0x3e9c3f8f	0.3051724
198	0x3e1ceeec	0.15325516
199	0x3eb61dc4	0.35569584

layers.2.running_var f4 [200]
0	0x3e08f25a	0.133737
1	0x3d10f7dd	0.03539263
2	0x3d5e3eec	0.054259226
3	0x3d28cea6	0.0412127
4	0x3db66abc	0.08907077
5	0x3d713438	0.05888769
6	0x3ddc50e9	0.1075762
7	0x3d87b403	0.066261314
8	0x3dab7de6	0.083736226
9	0x3dc3807f	0.09545993
10	0x3c9472d5	0.018121162
11	0x3d271124	0.04078783
12	0x3d582507	0.052769687
13	0x3c9a44c1	0.018831613
14	0x3d9470dc	0.07248089
15	0x3ce572c0	0.028008819
16	0x3d7ef135	0.06224175
17	0x3c9e81df	0.019349037
18	0x3d959ccc	0.07305297
19	0x3c83fbd8	0.0161113
20	0x3d9feab0	0.07808435
21	0x3d76c492	0.060246058
22	0x3d9303e8	0.071784794
23	0x3d6d2172	0.057893224
24	0x3bde8fdf	0.006792053
25	0x3e12c9f6	0.14334854
26	0x3e728461	0.23683311
27	0x3d7feca2	0.06248153
28	0x3e03d100	0.12872696
29	0x3d6ff2a7	0.05858102
30	0x3de65de5	0.11248378
31	0x3d82ee57	0.06393116
32	0x3d74571b	0.059653383
33	0x3da183ae	0.07886444
34	0x3d22dbef	0.039760526
35	0x3ddce0da	0.107850745
36	0x3d3b7425	0.04576506
37	0x3e1d7f23	0.1538053
38	0x3d16ed8b	0.036847632
39	0x3d0a8b7b	0.033824425
40	0x3cdc366a	0.026881415
41	0x3d220182	0.03955222
42	0x3e019f49	0.12658419
43	0x3e212bec	0.15739411
44	0x3d1bdffe	0.038055412
45	0x3d66f9c2	0.05639053
46	0x3d9fefad	0.078093864
47	0x3d500d66	0.050794028
48	0x3d08fefe	0.033446305
49	0x3ca52295	0.020158092
50	0x3bb2097b	0.005433259
51	0x3cf745d1	0.030184658
52	0x3d098769	0.033576403
53	0x3dd57792	0.10423197
54	0x3d8e5ce7	0.069513135
55	0x3cf69d6f	0.030104367
56	0x3cdcd9ce	0.026959326
57	0x3e823641	0.25432017
58	0x3e12fcbb	0.14354222
59	0x3da451ea	0.08023436
60	0x3d010581	0.03149939
61	0x3d5ae511	0.05344111
62	0x3e844c4d	0.25839463
63	0x3c85eb6c	0.01634761
64	0x3e56b841	0.20968725
65	0x3d4f4c05	0.050609607
66	0x3caf51fc	0.021401398
67	0x3da6f558	0.08152264
68	0x3db34a3e	0.08754395
69	0x3cfd5b67	0.030927373
70	0x3cb1ca0c	0.021702789
71	0x3cc88589	0.024477737
72	0x3da25e46	0.079281375
73	0x3d95aa3e	0.07307862
74	0x3dd871ec	0.10568604
75	0x3e3ff9b5	0.187476
76	0x3d03d816	0.032188497
77	0x3cfc55bb	0.030802598
78	0x3e5b7eb2	0.21435049
79	0x3cc48295	0.023988048
80	0x3da17269	0.0788315
81	0x3d79ff7b	0.06103466
82	0x3c8245d3	0.015902435
83	0x3d86d3cb	0.06583365
84	0x3de42c80	0.111413
85	0x3cd7778c	0.026302122
86	0x3dccad69	0.09994013
87	0x3cb5bd55	0.022185007
88	0x3d2fef17	0.042952623
89	0x3e3ee5f3	0.18642406
90	0x3d315983	0.043298256
91	0x3d541156	0.051774345
92	0x3e7996e8	0.24373972
93	0x3b930d38	0.00448766
94	0x3e268bcf	0.1626427
95	0x3d0a97cf	0.033836182
96	0x3d2ccf77	0.04219004
97	0x3d89151e	0.06693481
98	0x3db51085	0.088410415
99	0x3b0b1979	0.00212249
100	0x3ce704a4	0.028200455
101	0x3d8bf1f5	0.06833259
102	0x3c1f7144	0.0097315945
103	0x3d123983	0.03569938
104	0x3e031345	0.1280032
105	0x3d8ba615	0.06818787
106	0x3d5334a7	0.051563885
107	0x3d0d9a00	0.034570694
108	0x3da7167a	0.08158584
109	0x3e410fea	0.18853727
110	0x3ce7f54b	0.028315207
111	0x3d22b748	0.039725572
112	0x3ce1d23e	0.027566072
113	0x3d344652	0.044012375
114	0x3d22f2eb	0.039782446
115	0x3d9ff09e	0.07809566
116	0x3d85c20e	0.065311536
117	0x3da9192b	0.082567535
118	0x3d2ef88a	0.042717494
119	0x3ce5e2da	0.028062273
120	0x3e18de57	0.14928566
121	0x3dac876a	0.08424266
122	0x3d9ebe0e	0.07751094
123	0x3d7f78b2	0.062370963
124	0x3d969a5a	0.07353659
125	0x3dbab1be	0.09115933
126	0x3d67cbe8	0.056590945
127	0x3d94ce81	0.0726595
128	0x3e14f351	0.14545943
129	0x3d1a5e60	0.03768766
130	0x3e08c102	0.13354877
131	0x3d51363d	0.051077116
132	0x3d809053	0.06277528
133	0x3de4e41e	0.111763224
134	0x3dd9061b	0.10596868
135	0x3c4c20b3	0.012458968
136	0x3d6f0032	0.058349796
137	0x3da26137	0.079286985
138	0x3d53c75a	0.05170379
139	0x3d895f0e	0.06707583
140	0x3df6b95f	0.120470755
141	0x3d4e4f47	0.050368574
142	0x3ce21445	0.027597556
143	0x3d0c600d	0.03427129
144	0x3cf988be	0.030460712
145	0x3cdd7ace	0.027036097
146	0x3cf7dee0	0.030257642
147	0x3d878ddf	0.06618857
148	0x3dd140db	0.10217448
149	0x3dbebe4e	0.093136415
150	0x3d9cc09f	0.07653927
151	0x3d9ed73f	0.07755899
152	0x3d22a7f7	0.039710965
153	0x3e0b0308	0.13575375
154	0x3d9646c5	0.07337717
155	0x3c24347b	0.010022278
156	0x3d880bdb	0.06642886
157	0x3dc309a9	0.09523327
158	0x3d23649b	0.039890867
159	0x3d25aff5	0.04045101
160	0x3e1acca0	0.1511712
161	0x3d3535d7	0.0442408
162	0x3de734a7	0.112893395
163	0x3e1ae0b5	0.15124781
164	0x3d19d2b8	0.037554473
165	0x3e5e1527	0.21687756
166	0x3d4d9607	0.050191905
167	0x3d3ac0c8	0.045594007
168	0x3dcbaf97	0.099456005
169	0x3d08c17d	0.03338765
170	0x3d345b33	0.044032287
171	0x3e346bf9	0.17619313
172	0x3d22b3b8	0.039722174
173	0x3dab9304	0.083776504
174	0x3d9a52d6	0.07535331
175	0x3dc6459a	0.09681244
176	0x3da14775	0.078749575
177	0x3d4a9611	0.04945952
178	0x3d138cdf	0.036023017
179	0x3d3d9c63	0.04629172
180	0x3d66dd63	0.056363475
181	0x3ce9b08a	0.028526563
182	0x3d4cfc3a	0.05004523
183	0x3d577b1a	0.052607633
184	0x3d05c1d1	0.03265554
185	0x3d88a4c4	0.066720515
186	0x3d9ce9ee	0.07661806
187	0x3d424f62	0.047438987
188	0x3cce40cb	0.02517738
189	0x3ce57b4a	0.02801289
190	0x3d41aceb	0.047284048
191	0x3c05c15f	0.008163779
192	0x3d1127e3	0.03543843
193	0x3d841f97	0.06451338
194	0x3d0930c6	0.03349378
195	0x3ce9c315	0.028535405
196	0x3befaac7	0.0073140594
197	0x3d87ca9a	0.0663044
198	0x3d25af01	0.0404501
199	0x3e41b304	0.18915945

layers.4.weight f4 [100, 200]
0	0x3d918fff	0.07107543
1	0x3d4a0406	0.049320243
2	0x3c679d22	0.0141365845
3	0xbdfe9ed5	-0.124326386
4	0x3dad6719	0.0846693
5	0xbd5d47a3	-0.054023396
6	0x3dd01eb5	0.10162107
7	0xbd88d512	-0.06681265
8	0x3dc84914	0.097795635
9	0x3ce4357d	0.027857536
10	0xbe0a0626	-0.13478908
11	0xbbd52989	-0.0065051955
12	0xbd19b80e	-0.037529044
13	0xbe01fdee	-0.12694523
14	0x3cd47862	0.02593631
15	0x3a619617	0.0008605434
16	0x3db3e55a	0.0878398
17	0xbd98d4c2	-0.07462455
18	0xbdb7e038	-0.08978313
19	0xbc6ce2e8	-0.014458396
20	0xbd60c9c8	-0.054879934
21	0x390fc45b	0.00013710691
22	0xb9e8aa7e	-0.00044377515
23	0x3d884be9	0.06655104
24	0xbdaffbb1	-0.08592928
25	0xbd5eee4b	-0.054426473
26	0x3d15fa0b	0.036615413
27	0xbdae10c5	-0.08499292
28	0xbc83ea77	-0.016103012
29	0xbd33c34c	-0.04388742
30	0x3ce33aaa	0.027737934
31	0x3d283b2a	0.04107205
32	0x3d47cb2c	0.048777744
33	0xbcd717ff	-0.02625656
34	0x399e96cd	0.00030248464
35	0x3db3da9d	0.087819315
36	0xbd3dd838	-0.04634878
37	0x3c4c8728	0.012483396
38	0xbd3d427c	-0.046205983
39	0x3cc3b66d	0.023890698
40	0x3db9fdd0	0.09081614
41	0x3cbe3aff	0.02322149
42	0x3cf2bf0e	0.029632118
43	0x3d94a656	0.072582886
44	0x3d33f242	0.043932207
45	0x3d02806b	0.03186075
46	0xbcae113d	-0.021248454
47	0x3cf2572d	0.029582584
48	0xbb994e2f	-0.0046785097
49	0xbaa86993	-0.0012848846
50	0x3d9ecf6e	0.07754408
51	0x3d1b6bf4	0.03794475
52	0xbdb33acc	-0.08751449
53	0x3c2bf1aa	0.010494629
54	0x3c987e76	0.018614989
55	0x3d87e01c	0.06634542
56	0xbabbb688	-0.0014321366
57	0x3d6a56b6	0.0572116
58	0x3d14b1bf	0.036302324
59	0xbcd82dd1	-0.026389034
60	0xbcdc7cd3	-0.02691499
61	0xbd25065b	-0.040289264
62	0xbc26060d	-0.010133279
63	0xbdc3d6d3	-0.09562459
64	0xbd586e39	-0.05283949
65	0x3d0cd6bc	0.034384474
66	0x3da765a7	0.081736855
67	0x3ce88133	0.02838192
68	0xbcdd20be	-0.026993152
69	0xbdcd3cec	-0.100213856
70	0xbc8082e9	-0.015687423
71	0x3c69bb56	0.014265856
72	0x3a23b637	0.00062451087
73	0x3da4a8df	0.08040022
74	0x3d28e062	0.041229613
75	0x3c98a4e2	0.01863331
76	0x3d8ab13f	0.06772088
77	0xbdb70562	-0.089365736
78	0x3d093183	0.033494484
79	0x3cdde142	0.02708495
80	0x3d15dc56	0.03658708
81	0x3db7bf34	0.08972016
82	0x3d3c74ed	0.046009947
83	0x3c80a653	0.01570431
84	0x3ce9fb51	0.02856222
85	0x3d5fd847	0.054649618
86	0x3cede060	0.029037654
87	0xbdb1cf54	-0.08682123
88	0x3d2033b0	0.039111793
89	0x3d851920	0.06498933
90	0x3d9e75a3	0.07737281
91	0x3cc3d8f4	0.023907162
92	0x3bd2ff9a	0.0064391615
93	0x3ddb36fe	0.10703848
94	0xbd79e376	-0.06100794
95	0x3d4e58c8	0.050377637
96	0xbd7798d4	-0.060448483
97	0x3d6a32b2	0.057177253
98	0x3c64c004	0.013961796
99	0x3da44caa	0.08022435
100	0x3d8c9b18	0.06865519
101	0x3d049768	0.032370955
102	0x3d1a8100	0.03772068
103	0xbd152bbc	-0.03641866
104	0x3b3d7f3e	0.0028914954
105	0xbd880447	-0.06641441
106	0xbc473884	-0.0121594705
107	0xbcb4a1d8	-0.02204983
108	0xbd9752ef	-0.07388865
109	0xbd0bc23f	-0.034120794
110	0x3dc23b77	0.09483998
111	0x3df3efbe	0.119109616
112	0x3d8bbd49	0.06823213
113	0xbd8e07be	-0.069350705
114	0xbdf249ce	-0.118304834
115	0xbc0437ec	-0.008069973
116	0xbda34cb4	-0.07973614
117	0x3c6c9f56	0.0144422855
118	0x3c8268fb	0.0159192
119	0xbd6624b0	-0.05618733
120	0xbc9538c1	-0.018215539
121	0xbb0e197a	-0.0021682666
122	0xbc8e65a0	-0.017382443
123	0xbdd5f8cb	-0.10447844
124	0x3d8ae420	0.06781793
125	0xbda92350	-0.082586884
126	0x3dc029a7	0.093829446
127	0xbcf0d0f5	-0.029396513
128	0x3cb80b5d	0.022466356
129	0xbccd498f	-0.02505949
130	0x3b2135c2	0.0024598693
131	0x3c35fc94	0.011107583
132	0xbc5cf597	-0.013486288
133	0xbb96e6b0	-0.004605137
134	0x3d43265f	0.047644015
135	0xbd16d805	-0.036827106
136	0x3d59b55d	0.053151477
137	0x3dad9993	0.084765576
138	0xbd945e72	-0.072445765
139	0x3c8fa1e0	0.017533243
140	0xbd2d6857	-0.042335834
141	0x3dae1f19	0.08502025
142	0xbd96612a	-0.07342751
143	0x3c40c6fa	0.01176619
144	0x3d934c17	0.07192247
145	0x3dcbcf6a	0.099516705
146	0xbc4ed7c5	-0.012624686
147	0xbc84c9ab	-0.016209444
148	0xbcb55a01	-0.022137644
149	0x3d49da2a	0.049280323
150	0x3d781d85	0.060575027
151	0x3d048c55	0.032360394
152	0x3ce5c1b6	0.02804647
153	0xbc17be9a	-0.009261752
154	0xbd178d70	-0.03700012
155	0xbd21ecbe	-0.039532416
156	0xbd139bb0	-0.036037147
157	0xbc99c43b	-0.018770328
158	0x3bfd58c4	0.007731529
159	0x3d9088e9	0.070573635
160	0x3cd6f0a3	0.026237791
161	0xbe0975c9	-0.13423838
162	0x3cd2c0fb	0.025726786
163	0xbd032931	-0.032021705
164	0x3cdb3a8f	0.026761321
165	0x3d355be5	0.04427709
166	0x3d982465	0.07428817
167	0x3d080b5e	0.033213966
168	0x3d09034d	0.033450413
169	0x3d6b8cfd	0.057507504
170	0x3d6890f3	0.05677886
171	0x3cde7def	0.02715966
172	0xbb74e9d2	-0.0037370813
173	0x3c457a41	0.012053073
174	0x3dd213cb	0.102576815
175	0xbdb17897	-0.08665579
176	0x3dbc78ee	0.09202753
177	0xbc499557	-0.012303672
178	0xbe47bec7	-0.1950637
179	0x3cc641a2	0.024201218
180	0x3d63b99b	0.05559693
181	0xbd8ac8e2	-0.067765966
182	0x3dd77512	0.10520376
183	0x3d207dc3	0.039182436
184	0xbcbb1a14	-0.022839583
185	0x3d95b8f7	0.0731067
186	0xbc43f77c	-0.01196086
187	0xbab6a95c	-0.0013935971
188	0xbd9e72f1	-0.07736767
189	0x3d797bc3	0.060909044
190	0x3c73aeab	0.014873187
191	0xbc8cff3b	-0.017211547
192	0xbbc174ed	-0.005903831
193	0x3d948747	0.072523646
194	0x3d3996cc	0.045309827
195	0xbd77cb63	-0.0604967
196	0x3d0e8cbf	0.034802195
197	0x3d324f28	0.04353252
198	0x3db2849b	0.08716699
199	0x3ce1de53	0.027571833
200	0x3c059216	0.008152505
201	0x3d652180	0.05594015
202	0xbbd03533	-0.006353998
203	0x3d2298b4	0.03969641
204	0xbd313124	-0.043259755
205	0xbc47b6ba	-0.0121895615
206	0xbda525e3	-0.08063867
207	0xbd113b0f	-0.035456713
208	0x3d3926d3	0.04520304
209	0xbce01c03	-0.027357107
210	0x3d506874	0.050880864
211	0x3c342e52	0.010997372
212	0x3c84d8e1	0.016216697
213	0xbce9e623	-0.02855212
214	0x3c6ec8cb	0.01457424
215	0xbcf2765d	-0.029597456
216	0x3d908256	0.070561096
217	0xbc29b2c6	-0.010357564
218	0xba7772ae	-0.0009439391
219	0x3d61ad92	0.05509717
220	0xbdc3858e	-0.09546958
221	0x3bc1f3bb	0.0059189475
222	0x3cfca6b8	0.030841216
223	0x3d823b2c	0.063589424
224	0x3cc8308c	0.024437211
225	0x3cbf5f6a	0.023360927
226	0x3bc352b5	0.005960787
227	0xbc70d294	-0.014698643
228	0x3d1be246	0.038057588
229	0x3c11c11d	0.008896139
230	0xbe06bab8	-0.13157165
231	0x3ded8a93	0.115986966
232	0x3bf76d17	0.0075508463
233	0x3da88caa	0.082299545
234	0xbd45435e	-0.04815995
235	0xb966afc3	-0.00021999986
236	0xbd1740fa	-0.0369272
237	0xbd5ea277	-0.054354157
238	0x3cfc9df8	0.030837044
239	0xbbf9cbc6	-0.0076231686
240	0x3d769fc3	0.060210954
241	0x3cfabdb3	0.030608034
242	0x3daf5960	0.08561969
243	0x3c86aaf5	0.01643894
244	0x3d3e3bb7	0.046443667
245	0x3d381f7e	0.04495191
246	0x3c417b74	0.011809219
247	0x3d2bf73d	0.04198383
248	0x3adff47c	0.0017086412
249	0x3bab7993	0.0052329986
250	0xbe12881f	-0.14309739
251	0x3d111eca	0.035429753
252	0xbd53f2fd	-0.051745404
253	0xbcc725f1	-0.024310084
254	0xbcf3ef18	-0.029777095
255	0x3d98cdc9	0.074611254

layers.4.bias f4 [100]
0	0xbd40050d	-0.046879817
1	0x3e14a3b9	0.1451558
2	0xbd95fa03	-0.073230766
3	0xbc54325e	-0.012951462
4	0x3e4f96e4	0.20272404
5	0xbdae1a1c	-0.08501074
6	0x3bb00a64	0.0053723324
7	0xba094520	-0.00052364357
8	0xbbd8e0bc	-0.0066185873
9	0xb83e7c55	-4.5415323e-05
10	0x3e295ae8	0.16538584
11	0x3e3d33ab	0.18476741
12	0x3e23e94e	0.16006967
13	0x3e4804ac	0.19533032
14	0x3e2d7f3d	0.16943069
15	0x3de0957c	0.10966012
16	0x3e41c1c2	0.18921569
17	0xbd9c9b11	-0.07646764
18	0x3ddbf4c9	0.107400484
19	0x3e1cacd5	0.15300305
20	0xbd5430b2	-0.051804252
21	0x3e09d204	0.13459021
22	0xbdbaa629	-0.09113724
23	0x3e57f805	0.21090706
24	0x3e370768	0.17873919
25	0x3cd8b984	0.026455648
26	0x3c4562de	0.012047498
27	0xbd7b4125	-0.061341424
28	0x3e22cddf	0.15898846
29	0x3e0d9f1e	0.1383023
30	0x3e4bf3c2	0.19917205
31	0xbdaa55bf	-0.08317136
32	0x3e5ce70f	0.21572517
33	0x3c118783	0.008882406
34	0x3a7be31a	0.0009608731
35	0x3dd3bce0	0.103387594
36	0x3e042725	0.12905557
37	0xbd8898d7	-0.06669777
38	0xbd774427	-0.06036773
39	0xbd82feb5	-0.06396238
40	0x3cbf12ba	0.02332436
41	0x3e1a415d	0.15063997
42	0x3dbab85a	0.091171935
43	0x3e59922c	0.21247166
44	0xbdb886fd	-0.09010122
45	0x3c4a368d	0.0123421075
46	0x3e0f65c3	0.14003663
47	0xbd197cbf	-0.037472483
48	0x3e098453	0.13429384
49	0x3d5e0a46	0.054209016
50	0x3d8ca64a	0.068676546
51	0x3e0e4276	0.1389254
52	0x3df0b104	0.11752513
53	0xbddf09b9	-0.10890526
54	0xbdeb22ed	-0.11481271
55	0xbcd7420c	-0.02627661
56	0x3dec6248	0.11542183
57	0xbe752790	-0.23940873
58	0x3e5f08a0	0.21780634
59	0xbd4fb601	-0.05071068
60	0xbd583fe8	-0.05279532
61	0x3e19690b	0.14981477
62	0x3dd7f737	0.10545199
63	0xbd40add2	-0.047040768
64	0x3d878ecc	0.06619033
65	0x3e070aea	0.13187757
66	0x3e0723cd	0.1319725
67	0xbd55afbc	-0.052169546
68	0xbd694855	-0.056953747
69	0x3dfe2ba5	0.12410668
70	0xbba1e7d9	-0.0049409685
71	0xbcfc0053	-0.030761873
72	0x3e72c56f	0.23708127
73	0x3e706440	0.23475742
74	0x3e080b1b	0.13285486
75	0xb95968fb	-0.00020733841
76	0x3d35750d	0.04430108
77	0x3de36fe4	0.11105326
78	0x3da54f87	0.08071809
79	0x3e0ee6da	0.1395525
80	0x3dd041d0	0.10168803
81	0x3e79ca2d	0.2439353
82	0x3e1fd603	0.15608983
83	0x3de2efe9	0.110809155
84	0x3e212f91	0.15740801
85	0xbd5efd68	-0.054440886
86	0x3e324f2f	0.17413019
87	0x3a6ff28c	0.0009153269
88	0x3e6e0c45	0.23246868
89	0xbd9ac511	-0.07557119
90	0xbda4ef0b	-0.08053406
91	0x3e4b2cc0	0.1984129
92	0x3ddde314	0.10834327
93	0x3e49669c	0.19668049
94	0x3e3c01fe	0.18360135
95	0x3df41c2b	0.11919435
96	0x3dfedfe5	0.12445048
97	0x3dd4ba08	0.10387045
98	0x3dfa6b3c	0.122274846
99	0x3e22d1b1	0.15900303
